mujoco_playground/_src/manipulation/franka_emika_panda/onnx/panda_pick_policy.onnx (onnx, 26892 bytes, 12 tensors)

obs_mean f4 [66]
0.035948697 0.774198 -0.054834995 -1.4451547 0.04118117 2.2133358 -0.8120834 0.023836324
0.024005251 0.6966772 0.00020048661 0.10731324 0.96423244 -0.007271865 0.007860138 0.0047661574
0.02989186 0.18205164 -0.04500361 0.05098297 0.027668498 0.06371638 -0.018107913 -0.0059673544
-0.005064983 -0.0051582176 0.00056419114 0.039033983 -0.007337029 0.012270126 0.00443585 0.6837613
-0.00032036813 0.13634884 0.9459475 0.0020982574 0.0021001103 0.0027817795 -0.0049170335 -0.9399986
0.006938994 0.9307859 0.0129845645 -0.0106511125 -0.011034261 0.9163685 0.0076858965 0.0005145955
-0.02945597 0.00904809 0.000119645665 0.22329946 0.021129489 0.0077169086 -0.00824833 -0.0053652287
0.0025860704 -0.013833925 0.0016658684 -0.027762147 -0.0022566542 0.022862429 0.0020867896 0.00046965573
-2.6962203e-05 -0.010885291
00000000: f13e 133d d731 463f a99a 60bd d4fa b8bf
00000010: 96ad 283d 4ba7 0d40 b3e4 4fbf 6544 c33c
00000020: a9a6 c43c 7059 323f b739 5239 0bc7 db3d
00000030: f0d7 763f d348 eebb cfc7 003c 6d2d 9c3b
00000040: c6df f43c bf6b 3a3e b555 38bd 85d3 503d
00000050: 0ca9 e23c bc7d 823d 0c57 94bc cc89 c3bb
00000060: 28f8 a5bb 4406 a9bb 3ae6 133a 19e2 1f3d
00000070: 766b f0bb a308 493c 9b5a 913b fb0a 2f3f
00000080: 15f7 a7b9 089f 0b3e 9e29 723f eb82 093b
00000090: 01a2 093b 844e 363b 111f a1bb c0a3 70bf
000000a0: 8060 e33b fc47 6e3f 36bd 543c 0182 2ebc
000000b0: 0cc9 34bc 2097 6a3f f9d9 fb3b ebe5 063a
000000c0: a54d f1bc 713e 143c 47ea fa38 9da8 643e
000000d0: c017 ad3c 1fde fc3b 0124 07bc cdce afbb
000000e0: 107b 293b b0a7 62bc 4559 da3a 716d e3bc
000000f0: 60e4 13bb fd49 bb3c 85c2 083b 203c f639
00000100: e42c e2b7 3858 32bc

obs_std f4 [66]
0.1609168 0.30578703 0.17025046 0.38862157 0.21766979 0.31560233 0.24306428 0.008635564
0.008527818 0.10485639 0.113899864 0.117672525 0.12490018 0.12005535 0.15377176 0.12829305
0.32673302 0.70381117 0.32582855 0.54972667 0.8142709 0.843484 0.8382117 0.074038446
0.07239202 0.15352145 0.18209027 0.18770435 1.1874068 1.5258206 1.3866541 0.11114503
0.10872829 0.12800317 0.11300467 0.22076875 0.1901536 0.19004348 0.24627072 0.10998843
0.22162342 0.19914167 0.19271618 0.24804582 0.1910148 0.23348047 0.036369164 0.032134537
0.07985548 0.132192 0.11625047 0.12701209 0.22260854 0.19305706 0.28674418 0.19319293
0.20004244 0.24777822 0.025570024 0.07183411 0.027036926 0.04128402 0.037047494 0.06127373
0.016633008 0.012686735
00000000: 60c7 243e 1e90 9c3e 2356 2e3e 68f9 c63e
00000010: d4e4 5e3e a196 a13e d8e5 783e 2e7c 0d3c
00000020: 43b8 0b3c f2be d63d 5544 e93d 4bfe f03d
00000030: aacb ff3d 94df f53d 5876 1d3e 415f 033e
00000040: 8d49 a73e f82c 343f 00d3 a63e e3ba 0c3f
00000050: 0f74 503f 91ee 573f 0b95 563f 78a1 973d
00000060: 4442 943d ba34 1d3e df75 3a3e 9235 403e
00000070: f2fc 973f 174e c33f e27d b13f 01a0 e33d
00000080: f0ac de3d 4313 033e fe6e e73d 3411 623e
00000090: a0b7 423e c29a 423e 642e 7c3e 9d41 e13d
000000a0: 40f1 623e cbeb 4b3e 6457 453e b9ff 7d3e
000000b0: 6299 433e 8115 6f3e d5f7 143d 819f 033d
000000c0: 458b a33d 575d 073e ba14 ee3d 750f 023e
000000d0: 7ef3 633e c0b0 453e 22d0 923e 5ed4 453e
000000e0: edd7 4c3e 93b9 7d3e 3a78 d13c c31d 933d
000000f0: 8b7c dd3c 6f19 293d 1dbf 173d 2afa 7a3d
00000100: f241 883c 06dc 4f3c

mlp.0.weight f4 [32, 66]
-0.2713446 0.15839581 -0.054699566 0.24496089 -0.26018903 0.21790889 0.0011440788 0.10467473
0.1615124 -0.4206852 0.3587825 0.18203428 0.017690336 -0.014179171 0.07328779 0.05645162
-0.08021916 -0.5094037 -0.19466074 0.004439 -0.05016366 -0.11124556 -0.13145083 -0.009383607
-0.09805547 0.25254682 0.08275825 -0.19215776 0.13500461 -0.15644343 -0.045016553 0.1997315
-0.086347334 -0.0398708 -0.08027493 0.014623926 0.01204253 -0.07309639 0.20104188 0.20051956
-0.15745012 -0.1655779 -0.15156569 -0.02240897 -0.07395141 -0.11531342 -0.46656457 0.58830607
0.28537792 0.010691832 -0.1817495 0.16185462 0.0018500024 -0.063385464 -0.07710519 -0.050754774
0.021895824 -0.22353894 -0.27247545 0.10757398 0.17289609 0.108677514 -0.058610324 -0.08843636
-0.021192499 0.0039386163 0.008850766 -0.048170205 -0.0015005785 -0.09085453 -0.08730985 0.035056684
-0.0509047 0.08377257 -0.15370858 -0.22776128 -0.114099205 0.090977065 0.033792347 -0.044977777
0.044668198 -0.03823262 -0.031496204 -0.20075522 0.014909544 0.025372198 -0.035343625 0.011441577
-0.0037487198 0.00026513514 -0.046762377 0.013504948 0.020379035 0.057063494 -0.08024332 -0.032330953
-0.025842084 0.39335513 0.12260266 0.026475051 -0.04884939 0.054496925 0.030376427 -0.019399613
-0.17837736 -0.07036163 -0.07105141 0.09292373 0.006049177 0.08956116 0.06664685 0.08529565
-0.22122537 0.2999641 0.23742895 -1.2981448 0.24918862 -0.61090475 -0.017849699 -0.034484956
-0.23457263 0.01676652 -0.011963266 -0.39699754 0.011711305 -0.014169405 0.012403613 0.1373487
-0.06104562 0.41414058 0.0010438298 -0.0050388393 -0.0009172277 0.6087324 0.1093409 0.157256
0.05238485 -0.11765202 -0.23403274 -0.13662419 -0.035077397 -0.25997683 -0.28238016 0.5020476
-0.115621954 -0.043744355 0.03133243 -0.30671328 0.17692609 0.09542704 0.1881329 0.016287554
0.041932456 -0.169621 0.017430885 -0.09984466 -0.0050624725 0.15500832 -0.050173067 -0.09528505
-0.08589332 -0.15374623 0.040665895 0.023341961 0.18694966 -0.9487121 0.05882535 0.043878198
0.0073740752 0.00080055307 -0.15853488 -0.108778246 -0.0031341447 0.032286935 0.00776673 0.29405448
0.01031543 0.0043284097 -0.38728678 -0.9024261 1.44795 0.102354355 0.08660003 -0.03302197
0.036800504 -0.014490746 0.029449794 -0.09136152 -0.040051255 0.013558003 -0.018995475 0.3064666
-0.021585522 0.012157726 0.1273926 0.19254033 -0.08753681 -0.015265575 0.114297226 -0.18565854
0.18339996 0.41900247 -0.06085565 0.22223066 0.09986169 -0.2562367 -0.05537119 -0.20409577
-0.4895153 0.45425966 -0.17238022 0.13841495 0.24125274 0.06726825 0.09078913 -0.518906
0.14073011 0.09705844 0.032282118 0.03065129 0.01434778 -0.029460223 0.01686655 0.00075394363
-0.034156732 -0.09836777 0.14346832 0.010945317 -0.0657865 -0.03241816 0.12353458 0.20176856
-0.28247324 -0.059561457 0.061649058 -0.028437536 0.18353382 0.04205008 0.0035105378 0.0052436907
-0.053944424 -0.1028031 -0.1138248 -0.115458906 -0.32113057 -0.624552 -0.2703912 -0.3595514
-0.6421033 -0.041657053 0.052515507 -0.18773814 0.07095091 0.10573202 -0.0121402 0.28531635
00000000: aeed 8abe 8332 223e a70c 60bd 07d7 7a3e
00000010: 7f37 85be 8223 5f3e eaf4 953a b45f d63d
00000020: 8263 253e 0d64 d7be 57b2 b73e 3267 3a3e
00000030: 53eb 903c c14f 68bc e917 963d d039 673d
00000040: f149 a4bd 4868 02bf 2555 47be 0875 913b
00000050: 6978 4dbd b6d4 e3bd 0c9b 06be b3bd 19bc
00000060: 4ed1 c8bd d14d 813e 287d a93d 01c5 44be
00000070: a63e 0a3e b532 20be 4763 38bd 6a86 4c3e
00000080: dfd6 b0bd 904f 23bd 2f67 a4bd 3199 6f3c
00000090: 084e 453c 8fb3 95bd ecdd 4d3e 0055 4d3e
000000a0: 9b3a 21be 418d 29be 0934 1bbe 0493 b7bc
000000b0: d673 97bd 7129 ecbd 8de1 eebe 3a9b 163f
000000c0: 0e1d 923e cb2c 2f3c 8a1c 3abe 38bd 253e
000000d0: c87b f23a 3dd0 81bd 53e9 9dbd 3de4 4fbd
000000e0: df5e b33c 64e7 64be e781 8bbe bf4f dc3d
000000f0: ac0b 313e 5192 de3d 6111 70bd 1f1e b5bd
00000100: e49b adbc 820f 813b ce02 113c 1f4e 45bd
00000110: 0faf c4ba f111 babd 82cf b2bd 9997 0f3d
00000120: 7281 50bd f490 ab3d c865 1dbe 413a 69be
00000130: d8ac e9bd 2f52 ba3d d869 0a3d 9e3a 38bd
00000140: 00f6 363d cf99 1cbd 2a02 01bd c792 4dbe
00000150: 2947 743c 5bd9 cf3c 7ac4 10bd 7475 3b3c
00000160: 15ad 75bb d601 8b39 e889 3fbd db43 5d3c
00000170: eff1 a63c 69bb 693d 9c56 a4bd 766d 04bd
00000180: c7b2 d3bc d865 c93e 1a17 fb3d 35e2 d83c
00000190: 4c16 48bd 2b38 5f3d fcd7 f83c f0eb 9ebc
000001a0: 8ea8 36be c219 90bd 6783 91bd cc4e be3d
000001b0: 2d38 c63b d76b b73d 257e 883d 7caf ae3d
000001c0: e788 62be e594 993e 9320 733e 9c29 a6bf
000001d0: 4d2b 7f3e 4164 1cbf 8839 92bc 1940 0dbd
000001e0: cf33 70be f159 893c 9301 44bc 4343 cbbe
000001f0: c6e0 3f3c cb26 68bc 8638 4b3c 23a5 0c3e
00000200: f90a 7abd 3c0a d43e 1ed1 883a d91c a5bb
00000210: 1c72 70ba e3d5 1b3f 1fee df3d b807 213e
00000220: 7f91 563d 8bf3 f0bd 47a6 6fbe 36e7 0bbe
00000230: 51ad 0fbd af1b 85be 2294 90be 3186 003f
00000240: 34cb ecbd 482d 33bd 6f56 003d 8609 9dbe
00000250: 1d2c 353e 406f c33d e9a5 403e 7a6d 853c
00000260: 5ec1 2b3d 21b1 2dbe 37cb 8e3c 5b7b ccbd
00000270: 19e3 a5bb 80ba 1e3e 4682 4dbd cf24 c3bd
00000280: d6e8 afbd a76f 1dbe 4891 263d a437 bf3c
00000290: bb6f 3f3e ccde 72bf daf2 703d a0b9 333d
000002a0: 3aa2 f13b 35dc 513a f856 22be 21c7 debd
000002b0: 3966 4dbb 4e3f 043d 0e80 fe3b 4f8e 963e
000002c0: 0d02 293c 55d5 8d3b 744a c6be 6605 67bf
000002d0: 6d56 b93f 299f d13d 5b5b b13d 0c42 07bd
000002e0: 20bc 163d 986a 6dbc b240 f13c c01b bbbd
000002f0: c90c 24bd 6322 5e3c 669c 9bbc 31e9 9c3e
00000300: 1fd4 b0bc 3331 473c 3573 023e 4b29 453e
00000310: 8046 b3bd 761c 7abc aa14 ea3d 461d 3ebe
00000320: 33cd 3b3e 7e87 d63e c643 79bd 6f90 633e
00000330: 4984 cc3d 7531 83be e7cc 62bd 7bfe 50be
00000340: c0a1 fabe b994 e83e 7184 30be a6bc 0d3e
00000350: f50a 773e f0c3 893d a7ef b93d 06d7 04bf
00000360: 8e1b 103e 93c6 c63d 413a 043d 6a18 fb3c
00000370: f312 6b3c 9156 f1bc b82b 8a3c 4da4 453a
00000380: eee7 0bbd 0b75 c9bd 5ce9 123e fd53 333c
00000390: 13bb 86bd e8c8 04bd b3ff fc3d 6b9c 4e3e
000003a0: 55a0 90be b7f6 73bd b983 7c3d d6f5 e8bc
000003b0: 4af0 3b3e b43c 2c3d 0d11 663b 44d3 ab3b
000003c0: d4f4 5cbd 6f8a d2bd fa1c e9bd b875 ecbd
000003d0: 3a6b a4be a4e2 1fbf b770 8abe 1f17 b8be
000003e0: e260 24bf 96a0 2abd 801a 573d 6d3e 40be
000003f0: b64e 913d 088a d83d b0e7 46bc fc14 923e

mlp.0.bias f4 [32]
-0.12991063 0.03209912 0.033884436 0.053748243 0.22358641 -0.03881534 0.31874603 -0.075098254
-0.1554766 0.022949498 -0.34501502 0.17069605 0.096375555 0.19450301 0.007412202 0.10178819
0.037827022 -0.23889643 -0.047805116 -0.14430687 0.027304022 0.20494452 -0.042552914 0.02214742
0.062497746 0.23372452 0.26091167 -0.027369771 0.16670002 -0.094931245 0.26317483 -0.24079324
00000000: 4b07 05be 5e7a 033d 68ca 0a3d 1e27 5c3d
00000010: d6f3 643e d5fc 1ebd ae32 a33e 1dcd 99bd
00000020: 4235 1fbe 9600 bc3c cfa5 b0be f2ca 2e3e
00000030: 8c60 c53d cc2b 473e 0fe2 f23b 5476 d03d
00000040: 82f0 1a3d 44a1 74be 4ccf 43bd 2ec5 13be
00000050: afac df3c fadc 513e f74b 2ebd 826e b53c
00000060: a3fd 7f3d 7b55 6f3e 3796 853e 9236 e0bc
00000070: 69b3 2a3e 506b c2bd dabe 863e 8192 76be

mlp.2.weight f4 [32, 32]
0.1573678 -0.22531208 -0.40501475 0.17636438 -0.14188866 -0.013569167 0.32756436 0.08226217
-0.014666275 -0.15098283 0.34703287 -0.044979937 -0.18682605 -0.25288367 0.29713944 -0.28459296
0.000565521 -0.035545543 -0.032801595 0.15255238 -0.6044183 -0.2446863 -0.014176641 0.015472782
-0.6822624 0.27067816 -0.24209768 -0.041441936 -0.48303518 -0.103909045 -0.09281523 -0.105463125
-0.6146863 0.3017628 -0.0225527 -0.07922819 0.16068561 0.007253494 -0.069484055 -0.14335175
0.27201244 -0.7981808 -0.12811722 -0.09692321 -0.158733 0.025095707 -0.26014405 -0.008347272
0.34074047 0.3135806 -0.036237117 0.08125505 0.12478353 -0.2709032 -0.41066098 -0.375074
-0.07871461 -0.4132267 -0.09910515 0.021255588 0.25635755 -0.47793618 -0.10311481 0.23249264
0.17912756 0.090178646 0.2655943 0.11674785 0.25479156 0.1369789 0.13086013 0.2480506
-0.26169896 -0.18516265 0.0013842946 0.23650952 0.049068898 -0.87852496 0.14232059 -0.19351554
0.47758347 0.0343026 -0.39335018 0.24151115 0.47772816 -0.08258 0.17794873 -0.18623862
-0.33949015 -0.094120614 -0.26321855 -0.07139832 0.090450615 -0.4068967 -0.44723803 0.24246296
0.29768795 0.16833092 -0.3263274 0.22371522 0.016558737 0.25599858 -0.007822832 0.07066498
0.04587867 0.0019672338 -0.10708617 0.109761275 -0.31322095 -0.032844007 -0.2808809 -0.021192474
0.38551658 0.30395526 0.09078777 0.11002968 0.07285034 -0.33240834 0.0015269379 0.15978205
0.33009773 -0.21609776 -0.27326965 0.235557 0.38222924 0.08015187 0.21566868 0.11213294
0.100836806 0.06288396 -0.5716908 -0.109819844 0.16365674 0.39598104 0.18831092 0.120688416
-0.07525405 0.062355965 0.117082275 0.06553625 0.017964281 0.28303912 0.24068747 -0.19391055
-0.0129833855 -0.0013151425 -0.33454543 -0.06257809 -0.08949473 -0.08516322 -0.44803262 0.232993
-0.76609915 -0.06834835 -0.28436494 0.03788941 -0.016786966 0.0018450085 -0.25931588 -0.0263478
-0.119900994 0.104423955 0.15442029 -0.036079094 0.19803047 0.36628428 -0.054692082 0.010901241
-0.5594395 -0.33690363 -0.30291253 0.015727274 0.16981344 0.23458238 -0.063657135 -0.36509025
-0.18095998 -0.14599246 -0.29294696 -0.2371911 0.12588926 0.061283235 -0.11052646 0.36113012
-0.9150182 -0.212092 0.1618349 -0.324683 0.26936826 -0.36555234 0.14767368 0.18295068
-0.11866937 0.5367971 0.118828505 -0.06407625 0.009865358 -0.071513586 0.39198944 0.17664964
-0.42533293 -0.63942057 -0.029169265 -0.059340127 -0.56082755 -0.037271082 0.045004815 -0.1435773
0.023944601 -0.03326136 -0.00040151458 -0.32965744 -0.10117975 -0.12073436 -0.029559493 0.18858269
0.12983544 -0.28794423 0.32652262 -0.18796484 -0.29204535 0.17535657 0.035411716 0.07568151
0.011129346 -0.6139113 -0.058760773 0.3097677 0.22043394 -0.26034033 -0.5573797 -0.1675781
-0.013913395 -0.2462017 -0.3745677 -0.08955291 -0.17011261 -0.028709564 -0.533944 0.13120377
-0.07293157 0.4218804 0.07888668 0.004958737 0.27341884 -0.36453584 -0.24837117 0.2306606
-0.21500659 -0.29355377 0.06125397 0.049707454 0.2898738 -0.003043854 0.0012705901 -0.24567571
00000000: 0625 213e 36b8 66be 185e cfbe dd98 343e
00000010: 434b 11be 3651 5ebc 84b6 a73e 1279 a83d
00000020: d14a 70bc 3e9b 1abe 4bae b13e e23c 38bd
00000030: 544f 3fbe f879 81be a922 983e 2bb6 91be
00000040: 793f 143a 3498 11bd f75a 06bd b136 1c3e
00000050: 28bb 1abf 0c8f 7abe 2445 68bc 8d81 7d3c
00000060: c0a8 2ebf 5496 8a3e 74e8 77be 05bf 29bd
00000070: 6350 f7be 44ce d4bd e915 bebd 0dfd d7bd
00000080: 155c 1dbf a780 9a3e 71c0 b8bc 6442 a2bd
00000090: c58a 243e b8ae ed3b a84d 8ebd cdca 12be
000000a0: 3745 8b3e 9455 4cbf 2931 03be ad7f c6bd
000000b0: e78a 22be 8395 cd3c 9a31 85be ffc2 08bc
000000c0: 8975 ae3e a38d a03e 5f6d 14bd 0c69 a63d
000000d0: 828e ff3d d3b3 8abe 2842 d2be b309 c0be
000000e0: 2035 a1bd 7392 d3be a4f7 cabd 3320 ae3c
000000f0: 4c41 833e 0db4 f4be dc2d d3bd 8d12 6e3e
00000100: 376d 373e 95af b83d fafb 873e 7f19 ef3d
00000110: 0a74 823e 3244 0c3e 3300 063e fa00 7e3e
00000120: 68fd 85be 479b 3dbe 3871 b53a 8d2f 723e
00000130: 78fc 483d 03e7 60bf 7dbc 113e f028 46be
00000140: d285 f43e e280 0c3d 3265 c9be b34e 773e
00000150: c998 f43e b41f a9bd 3138 363e 56b5 3ebe
00000160: a7d1 adbe 4fc2 c0bd 95c4 86be 4839 92bd
00000170: 2c3e b93d c454 d0be 62fc e4be 3648 783e
00000180: 8e6a 983e f15e 2c3e 6314 a7be 9a15 653e
00000190: 30a6 873c 3f12 833e 562b 00bc cdb8 903d
000001a0: 46eb 3b3d b5ec 003b fe4f dbbd 85ca e03d
000001b0: 7f5e a0be 7087 06bd 9fcf 8fbe d79b adbc
000001c0: 6e62 c53e 06a0 9b3e f0ee b93d 3e57 e13d
000001d0: 8f32 953d 6d31 aabe 8923 c83a e89d 233e
000001e0: 9202 a93e bb48 5dbe 00ea 8bbe db35 713e
000001f0: 8db3 c33e aa26 a43d 40d8 5c3e f4a5 e53d
00000200: 8783 ce3d 4ec9 803d 545a 12bf 3ae9 e0bd
00000210: a295 273e 07be ca3e 94d4 403e 7d2b f73d
00000220: cc1e 9abd f868 7f3d d5c8 ef3d df37 863d
00000230: d429 933c 81ea 903e c776 763e 7d90 46be
00000240: 44b8 54bc dc60 acba 8a49 abbe f128 80bd
00000250: 0349 b7bd 0e6a aebd 8864 e5be b895 6e3e
00000260: 131f 44bf 38fa 8bbd 4898 91be ed31 1b3d
00000270: d284 89bc 36d4 f13a 0dc5 84be 57d7 d7bc
00000280: a78e f5bd 3adc d53d 5a20 1e3e acc7 13bd
00000290: 80c8 4a3e 9d89 bb3e ce04 60bd 1e9b 323c
000002a0: 6d37 0fbf a27e acbe 5a17 9bbe 7cd6 803c
000002b0: 93e3 2d3e 5d36 703e ac5e 82bd 1ced babe
000002c0: 934d 39be 0c7f 15be 25fd 95be 39e2 72be
000002d0: 1de9 003e 2104 7b3d b25b e2bd 0ce6 b83e
000002e0: a23e 6abf a52e 59be 0cb8 253e da3c a6be
000002f0: a3ea 893e ad29 bbbe c537 173e 6c57 3b3e
00000300: ed08 f3bd 896b 093f 5c5c f33d 693a 83bd
00000310: 4fa2 213c b775 92bd d7b2 c83e a5e3 343e
00000320: 3dc5 d9be 11b1 23bf 62f4 eebc a20e 73bd
00000330: 6592 0fbf 90a9 18bd f856 383d ed05 13be
00000340: 7827 c43c 103d 08bd 6082 d2b9 dcc8 a8be
00000350: 5437 cfbd 9343 f7bd c026 f2bc d21b 413e
00000360: 95f3 043e 6d6d 93be f92d a73e db79 40be
00000370: f886 95be ac90 333e e00b 113d e8fe 9a3d
00000380: dc57 363c 4a29 1dbf 23af 70bd df99 9e3e
00000390: 6fb9 613e 544b 85be 70b0 0ebf 9899 2bbe
000003a0: 02f5 63bc 4c1c 7cbe 56c7 bfbe 8467 b7bd
000003b0: 0032 2ebe 5230 ebbc 8eb0 08bf 485a 063e
000003c0: 265d 95bd b500 d83e 578f a13d e77c a23b
000003d0: 8efd 8b3e 71a4 babe 0355 7ebe 4b32 6c3e
000003e0: b02a 5cbe ae4c 96be 71e5 7a3d 0b9a 4b3d
000003f0: 576a 943e 657b 47bb ee89 a63a 6a92 7bbe

mlp.2.bias f4 [32]
0.27990913 -0.16109079 -0.10155063 -0.2690095 0.29041985 0.13645235 0.07313624 -0.3780643
0.06248199 -0.20114349 0.043786038 -0.27553782 -0.038289953 -0.07047986 -0.13522556 0.09591175
0.119803794 -0.13390654 0.14331645 -0.0005121714 0.06265154 -0.083356485 0.019312652 0.24371828
0.23638687 0.0009397305 -0.042757805 0.23141983 -0.23527181 0.055308275 -0.1833822 0.04759079
00000000: 4050 8f3e fcf4 24be c7f9 cfbd 9dbb 89be
00000010: e9b1 943e 2aba 0b3e 74c8 953d a591 c1be
00000020: 1ded 7f3d 8ff8 4dbe fd58 333d 4b13 8dbe
00000030: edd5 1cbd bf57 90bd 9278 0abe 616d c43d
00000040: b15b f53d cc1e 09be 8cc1 123e 3e43 06ba
00000050: 734f 803d ceb6 aabd 9135 9e3c 4991 793e
00000060: 660f 723e 3f58 763a cf22 2fbd 52f9 6c3e
00000070: 18eb 70be ee8a 623d 8bc8 3bbe 8fee 423d

mlp.4.weight f4 [32, 32]
-0.07499839 0.22585538 -0.05332675 -0.24099535 0.11017831 0.15258385 0.23144352 -0.08940586
-0.32539004 -0.03239741 -0.48038682 -0.13966149 0.18167141 -0.13135952 0.096480995 -0.26520634
-0.15294057 0.328875 -0.34973457 -0.21218386 0.025396006 -0.028561585 -0.49687198 -0.15224785
-0.572357 0.20038007 -0.03360954 -0.07900223 -0.12251543 0.37869772 -0.10610972 -0.23387097
0.15666756 -0.48436525 -0.06063432 -0.10619979 -0.15595308 0.131959 -0.1783403 -0.17337511
0.035658594 0.06197838 0.09545241 -0.04475761 0.23675026 -0.002741273 0.24036185 0.07016805
-0.22797023 0.2507385 0.29448012 0.2495191 0.0022755866 0.14583795 0.14217058 0.62412393
0.040843166 -0.62385595 -0.113838956 0.070413604 -0.3425417 0.124634475 0.19189028 0.40771666
-0.4882786 0.12275354 -0.27504647 0.018628983 -0.2797366 0.16837607 -0.13244204 0.16691384
0.05069681 0.23693332 -0.010687722 0.41446573 -0.04579262 0.0911833 -0.12192076 -0.054238133
0.04338207 -0.36176434 -0.14852715 0.24336371 -0.12771569 0.07388161 -0.36841828 -0.12645748
0.12408128 0.16525504 -0.12856038 -0.5381231 0.28044423 0.4042302 -0.17276463 0.044111352
-0.0035723043 -0.17994265 0.0796412 -0.2514891 0.26203528 0.17316219 -0.05483216 -0.11677088
0.088314764 0.16949113 -0.3316437 0.013151191 0.26723126 0.29547808 -0.14499962 -0.049792603
-0.058121394 0.23185751 -0.35804817 0.04310965 -0.3650433 -0.16925687 -0.18221666 0.23368694
-0.22298898 0.26454338 0.32328755 -0.06273309 0.19276164 -0.4216841 -0.5027331 0.10798471
-0.36687362 -0.044516116 -0.50962156 0.118564725 -0.08732351 -0.15801004 -0.1404774 -0.32786024
0.04830407 0.14659229 0.06718492 -0.23581891 -0.071881466 0.14195801 -0.0852817 -0.12661009
-0.14909136 -0.45808306 0.46429056 -0.06818105 -0.14061056 0.24447596 -0.40639254 -0.0073579997
0.20630153 -0.32954097 -0.27766505 -0.22593974 -0.2896668 0.38875753 0.22405416 0.015938126
0.31747574 -0.18510616 -0.3378495 0.21501048 0.11933249 -0.2265386 -0.052046604 0.295075
0.054914143 -0.15445386 0.012119252 0.28743547 0.030482162 0.31067 0.5266678 -0.10679973
-0.12717882 0.352342 -0.7401008 -0.08658834 0.1446142 0.23837174 -0.7507313 0.5300527
0.20690368 0.07574159 -0.32546538 0.08600931 -0.32589486 0.22057077 -0.13380253 0.58336544
0.21838026 -0.3554872 0.19937381 -0.119890735 -0.11799502 -0.008159868 -0.1432569 -0.19031739
0.20545511 0.021904819 0.060344566 0.30925405 -0.09017752 -0.3170208 0.5380962 0.055343032
-0.4979373 -0.047794897 -0.3697109 -0.6426611 -0.22959435 0.039235543 -0.71579516 -0.091511466
-0.5108562 0.13256812 0.098200865 0.12422846 0.40875167 0.14281574 -0.34272853 -0.32617605
0.30246377 -0.05339839 -0.056593664 -0.06041677 -0.13297527 -0.04710413 0.13332477 0.069978714
-0.48603445 0.3033568 -0.28705558 -0.08753835 -0.32601348 -0.2664072 0.31479248 -0.015771559
0.38395998 -0.17984232 -0.074934624 -0.34447366 -0.044570595 -0.14644313 0.09069022 -0.65167516
0.18157545 -0.11789213 -0.14938235 0.13676453 -0.601368 -0.14282535 0.36520162 0.11548348
00000000: c298 99bd a246 673e 266d 5abd 7cc7 76be
00000010: 2aa5 e13d f13e 1c3e 88ff 6c3e 6b1a b7bd
00000020: 8699 a6be 26b3 04bd 43f5 f5be 6c03 0fbe
00000030: 1208 3a3e 1c83 06be d497 c53d 20c9 87be
00000040: 749c 1cbe 4e62 a83e 6910 b3be ba46 59be
00000050: 490b d03c fcf9 e9bc 0166 febe dce6 1bbe
00000060: fd85 12bf 6f30 4d3e 28aa 09bd eccb a1bd
00000070: 5fe9 fabd abe4 c13e 0e50 d9bd df7b 6fbe
00000080: 766d 203e b9fe f7be b15b 78bd 477f d9bd
00000090: 2ab2 1fbe 4320 073e d79e 36be 3f89 31be
000000a0: bf0e 123d 0bdd 7d3d 8e7c c33d c153 37bd
000000b0: a96e 723e eea6 33bb 6b21 763e 44b4 8f3d
000000c0: 0771 69be cc60 803e 19c6 963e ef81 7f3e
000000d0: 0222 153b 8b56 153e 2a95 113e 96c6 1f3f
000000e0: 2a4b 273d 06b5 1fbf 6624 e9bd 0235 903d
000000f0: a061 afbe 5c40 ff3d e37e 443e 3dc0 d03e
00000100: a7ff f9be 3566 fb3d e4d2 8cbe cf9b 983c
00000110: a339 8fbe c76a 2c3e e39e 07be 76eb 2a3e
00000120: 75a7 4f3d a69e 723e 8e1b 2fbc da34 d43e
00000130: 0b91 3bbd 4fbe ba3d 97b1 f9bd ce28 5ebd
00000140: 66b1 313d 2d39 b9be 8017 18be 5634 793e
00000150: e7c7 02be 3e4f 973d 52a1 bcbe 127e 01be
00000160: 531e fe3d 9e38 293e 55a5 03be 6fc2 09bf
00000170: 6396 8f3e 43f7 ce3e 36e9 30be 1bae 343d
00000180: 521d 6abb e342 38be ed1a a33d 2ec3 80be
00000190: 7d29 863e 6e51 313e b097 60bd 9225 efbd
000001a0: 5fde b43d 158f 2d3e 34cd a9be 1878 573c
000001b0: 89d2 883e e748 973e c87a 14be 54f3 4bbd
000001c0: b310 6ebd 0e6c 6d3e 1752 b7be bf93 303d
000001d0: f5e6 babe ac51 2dbe 0197 3abe a14b 6f3e
000001e0: 3957 64be 3b72 873e f285 a53e 357a 80bd
000001f0: 4f63 453e fae6 d7be 1eb3 00bf 1627 dd3d
00000200: dcd6 bbbe 8856 36bd 8f76 02bf 10d2 f23d
00000210: abd6 b2bd 62cd 21be 4fd9 0fbe 4cdd a7be
00000220: 7dda 453d 4a1c 163e 3f98 893d 837a 71be
00000230: 9736 93bd 715d 113e 2ca8 aebd 13a6 01be
00000240: 68ab 18be dd89 eabe 7eb7 ed3e 82a2 8bbd
00000250: 37fc 0fbe e857 7a3e af12 d0be 601b f1bb
00000260: b540 533e 98b9 a8be 1d2a 8ebe bf5c 67be
00000270: 354f 94be 3a0b c73e 746e 653e ac90 823c
00000280: 2e8c a23e 788c 3dbe 9cfa acbe b52b 5c3e
00000290: 9864 f43d bcf9 67be d22e 55bd 1214 973e
000002a0: a7ed 603d 2729 1ebe d48f 463c be2a 933e
000002b0: bab5 f93c 2310 9f3e b3d3 063f d1b9 dabd
000002c0: 2a3b 02be 2c66 b43e 3f77 3dbf 3a55 b1bd
000002d0: bf15 143e b917 743e ed2f 40bf 89b1 073f
000002e0: 8fde 533e 681e 9b3d 66a3 a6be a625 b03d
000002f0: b1db a6be 4edd 613e 8803 09be 7057 153f
00000300: 139f 5f3e 6b02 b6be a628 4c3e 4689 f5bd
00000310: 5fa7 f1bd f8b0 05bc f0b1 12be 90e2 42be
00000320: d362 523e bc71 b33c dd2b 773d 8c56 9e3e
00000330: feae b8bd 8d50 a2be acc0 093f 60af 623d
00000340: a3f1 febe 95c4 43bd bf4a bdbe 7085 24bf
00000350: c81a 6bbe 73b5 203d 5a3e 37bf 5d6a bbbd
00000360: 79c7 02bf f0bf 073e 891d c93d 7e6b fe3d
00000370: e647 d13e 4a3e 123e 1d7a afbe 8c00 a7be
00000380: 88dc 9a3e 45b8 5abd c2ce 67bd 9377 77bd
00000390: ab2a 08be 43f0 40bd 4a86 083e 0051 8f3d
000003a0: 82d9 f8be 9551 9b3e f3f8 92be 4e47 b3bd
000003b0: 3deb a6be 8666 88be 7b2c a13e 5b33 81bc
000003c0: 6796 c43e 9628 38be 5377 99bd da5e b0be
000003d0: a88f 36bd 30f5 15be cbbb b93d 2fd4 26bf
000003e0: eaee 393e 6e71 f1bd b0f7 18be 000c 0c3e
000003f0: 41f3 19bf cf40 12be b5fb ba3e 9a82 ec3d

mlp.4.bias f4 [32]
0.08158398 -0.05776165 -0.12868561 0.10510385 0.11323623 -0.11819509 -0.20406179 0.24936984
0.06699803 -0.030080061 -0.19678722 0.09214095 0.033076074 0.1542019 0.028581476 -0.14704742
-0.0489855 -0.042802442 -0.065729246 0.14988355 -0.21069255 -0.12596211 -0.049002517 0.04456182
-0.05877543 0.007575117 0.004678227 -0.010422188 -0.031124594 0.12687656 0.08421759 0.18933624
00000000: 8015 a73d 7b97 6cbd 29c6 03be b040 d73d
00000010: 66e8 e73d 4410 f2bd 93f5 50be cf5a 7f3e
00000020: 4336 893d 766a f6bc 9782 49be 65b4 bc3d
00000030: c77a 073d 1ae7 1d3e b323 ea3c 9993 16be
00000040: 05a5 48bd 9d51 2fbd 0e9d 86bd 137b 193e
00000050: cabf 57be 36fc 00be ddb6 48bd 7486 363d
00000060: 81be 70bd b038 f83b d04b 993b d3c1 2abc
00000070: 01f9 febc eeeb 013e 467a ac3d 5ce1 413e

mlp.6.weight f4 [32, 32]
0.25642627 0.046521455 0.29908788 -0.2616606 -0.18820484 0.38117883 -0.2357991 -0.57274795
0.46127838 -0.094494194 0.04868541 -0.46818134 -0.02288189 0.22085534 0.32016194 -0.14413658
0.4055565 0.18823862 -0.13202429 0.097260155 0.19132645 -0.121626556 -0.27976894 -0.054579318
-0.12900539 -0.16752408 0.20039898 -0.21961752 -0.11188135 0.12449173 0.07977873 -0.05184711
-0.15322624 -0.19148482 0.027039673 0.18948889 -0.081490256 0.13738166 0.0005747588 -0.15356235
-0.07580564 0.20689896 0.13425313 0.21810357 -0.42251667 -0.51208276 -0.0935645 -0.15706757
-0.4941386 -0.07367507 0.028904775 -0.21255578 -0.54368067 0.28062147 -0.44277072 -0.44233167
-0.19534068 0.0690741 0.2682425 0.14743625 0.09190966 -0.5057724 0.27137813 0.1673291
0.35010564 0.0018143174 0.16634595 -0.11718662 0.31931573 -0.012045295 0.41121173 -0.11164284
0.22578157 0.35625434 0.2251748 0.08437911 -0.09595164 -0.544921 0.08191158 0.25326756
0.37122637 -0.013526947 -0.089459114 -0.3682177 0.37918505 -0.3344921 -0.1604819 -0.34214672
0.29442954 0.04960354 0.21655305 0.13869274 0.10883829 -0.4402108 0.4537197 -0.24119507
-0.294874 0.24358912 -0.46545547 -0.27508846 0.19302212 -0.27571866 -0.14415237 0.35682642
-0.03268141 0.31550506 -0.31541735 -0.3540253 -0.16798505 0.23158251 0.27382687 0.055483986
0.15660663 -0.080146275 -0.19005813 0.45611036 0.5890867 -0.4286492 0.116498224 0.05090216
-0.05326811 -0.3790064 0.15023872 -0.29736668 -0.5546763 -0.045964148 -0.13479352 -0.0332113
0.13051036 0.04503338 -0.34357095 -0.26335225 0.1923917 0.13741022 0.12819853 -0.08615378
0.23609358 -0.066920914 -0.36501938 -0.38809827 0.29201812 0.29386234 0.28386846 -0.15802717
0.10624134 0.24186756 0.11934383 0.03163864 0.037849303 0.30393535 0.4439998 0.25481483
-0.33356705 -0.059953276 -0.11991773 0.18489207 -0.27185416 0.21628274 0.63282573 0.22884478
-0.06702756 -0.16721421 -0.32841638 0.11947373 -0.058324493 0.066502705 -0.23121913 0.047594033
0.3359113 0.09939667 -0.43216127 0.26915696 0.46486422 -0.088641636 0.2962355 0.066542
-0.3518594 -0.064228356 0.31710577 -0.24224344 0.26506615 -0.13417615 0.16614449 0.013771536
-0.1521717 0.20860757 -0.12905854 -0.31752962 -0.1169811 0.20517805 0.18212721 -0.40460497
-0.16450953 0.065997936 -0.048304815 -0.11577448 0.51772803 0.10566637 0.37404278 -0.12278107
-0.40446627 -0.23205754 0.14448458 0.14006244 0.07815726 0.19603138 0.05803005 0.20465131
0.14175075 0.23702046 -0.004247796 0.062391594 0.3138043 -0.043045845 0.05961434 0.15457156
-0.091299996 -0.1856066 -0.11026412 -0.26763195 -0.074247755 0.17660353 0.1646584 -0.5152066
-0.009198461 0.17223108 -0.21140808 -0.0641195 -0.4177578 0.03290284 0.2649078 -0.49985978
0.12467774 0.47821072 -0.014265155 -0.08041999 0.20575821 -0.35411504 -0.16788574 -0.13500872
0.035423595 0.14600873 -0.2324414 -0.7562214 0.112836815 -0.049371764 -0.07415316 -0.18658699
0.11012634 -0.31210437 -0.30820495 -0.23769106 -0.40723026 -0.44035733 0.37039068 -0.6170201
00000000: 4e4a 833e 488d 3e3d 0c22 993e 61f8 85be
00000010: c5b8 40be df29 c33e 5275 71be 9c9f 12bf
00000020: ae2c ec3e 2c86 c1bd 5a6a 473d 77b5 efbe
00000030: cd72 bbbc e727 623e 44ec a33e 8a98 13be
00000040: 1aa5 cf3e a0c1 403e 6031 07be 5530 c73d
00000050: 15eb 433e 5817 f9bd e03d 8fbe 908e 5fbd
00000060: fd19 04be 6f8b 2bbe 6435 4d3e 6ae3 60be
00000070: 0d22 e5bd 85f5 fe3d 0863 a33d a35d 54bd
00000080: 57e7 1cbe 9914 44be 4e82 dd3c 6009 423e
00000090: 5de4 a6bd c7ad 0c3e 69ab 163a 733f 1dbe
000000a0: fd3f 9bbd 52dd 533e a779 093e 8b56 5f3e
000000b0: 1b54 d8be db17 03bf bf9e bfbd 52d6 20be
000000c0: bcff fcbe f5e2 96bd b5c9 ec3c 39a8 59be
000000d0: a82e 0bbf 9ead 8f3e d8b2 e2be 4c79 e2be
000000e0: 6307 48be b976 8d3d 1557 893e 87f9 163e
000000f0: 223b bc3d 4d7a 01bf 13f2 8a3e 5258 2b3e
00000100: 0c41 b33e 64ce ed3a 9856 2a3e 8aff efbd
00000110: 5a7d a33e a159 45bc 588a d23e 00a5 e4bd
00000120: 4933 673e f866 b63e 3994 663e f4ce ac3d
00000130: 4b82 c4bd f17f 0bbf 42c1 a73d 49ac 813e
00000140: 6211 be3e 21a0 5dbc 5736 b7bd 0887 bcbe
00000150: 8b24 c23e 8c42 abbe 5e55 24be db2d afbe
00000160: 78bf 963e 152d 4b3d 15c0 5d3e 7805 0e3e
00000170: 9ce6 de3d 4f63 e1be f34d e83e d7fb 76be
00000180: baf9 96be 6d6f 793e 2e50 eebe 65d8 8cbe
00000190: 97a7 453e ff2a 8dbe ae9c 13be f4b1 b63e
000001a0: f1dc 05bd e189 a13e 627e a1be ce42 b5be
000001b0: 4604 2cbe f723 6d3e 0933 8c3e 2d43 633d
000001c0: 7d5d 203e bb23 a4bd 999e 42be 4c87 e93e
000001d0: 63ce 163f e877 dbbe 9f96 ee3d c97e 503d
000001e0: a92f 5abd 200d c2be 2ed8 193e 7240 98be
000001f0: 44ff 0dbf e744 3cbd 5007 0abe 9208 08bd
00000200: 82a4 053e ec74 383d 88e8 afbe 1bd6 86be
00000210: 5402 453e 44b5 0c3e 7a46 033e 6571 b0bd
00000220: 84c2 713e d50d 89bd d2e3 babe d1b4 c6be
00000230: 6683 953e 2075 963e 3557 913e e0d1 21be
00000240: 0f95 d93d 21ac 773e 8a6a f43d 8597 013d
00000250: df07 1b3d 6a9d 9b3e f153 e33e 1777 823e
00000260: 4dc9 aabe 9191 75bd 6d97 f5bd 5954 3d3e
00000270: 7830 8bbe 3979 5d3e de00 223f 4956 6a3e
00000280: bf45 89bd 343a 2bbe 3126 a8be a5ae f43d
00000290: aae5 6ebd 9232 883d b5c4 6cbe f6f1 423d
000002a0: 91fc ab3e 7b90 cb3d 3e44 ddbe f1ce 893e
000002b0: af02 ee3e bf89 b5bd 2eac 973e 2c47 883d
000002c0: ea26 b4be 288a 83bd b05b a23e aa0e 78be
000002d0: c0b6 873e 7965 09be c821 2a3e 02a2 613c
000002e0: e6d2 1bbe 399d 553e ec27 04be 3e93 a2be
000002f0: c993 efbd 321a 523e 8e7f 3a3e 6228 cfbe
00000300: 3075 28be ed29 873d 45db 45bd 2c1b edbd
00000310: d389 043f 9c67 d83d 8982 bf3e a474 fbbd
00000320: 3416 cfbe 7ea0 6dbe c4f3 133e 876c 0f3e
00000330: ea10 a03d 73bc 483e ebb0 6d3d 1d90 513e
00000340: 1c27 113e 7eb5 723e 1831 8bbb 548e 7f3d
00000350: f5aa a03e d750 30bd 2b2e 743d 0248 1e3e
00000360: 7efb babd a80f 3ebe 28d2 e1bd 0e07 89be
00000370: 350f 98bd 8ed7 343e 369c 283e 94e4 03bf
00000380: 24b5 16bc 585d 303e 5c7b 58be 1651 83bd
00000390: 5ae4 d5be 21c5 063d ffa1 873e 9fed ffbe
000003a0: 0b57 ff3d 09d8 f43e 66b8 69bc 3cb3 a4bd
000003b0: 48b2 523e 914e b5be 3dea 2bbe ba3f 0abe
000003c0: 5518 113d 5083 153e 1e05 6ebe ba97 41bf
000003d0: fd16 e73d 0c3a 4abd 9ddd 97bd a910 3fbe
000003e0: eb89 e13d 25cc 9fbe 0acd 9dbe 4965 73be
000003f0: 7c80 d0be 8476 e1be d9a3 bd3e 07f5 1dbf

mlp.6.bias f4 [32]
-0.07603773 0.11058547 -0.23179977 -0.008200839 0.079140976 -0.15219283 -0.40456524 -0.14869642
0.2005167 0.043711167 -0.0092197815 0.13283049 -0.06078544 -0.024915902 -0.065044045 0.06051496
-0.25545424 0.09443348 0.22260763 0.15944591 -0.08618712 -0.10558468 0.22708127 -0.08505334
5.0648443e-05 -0.11257696 -0.13364267 0.13515246 0.122909345 0.018338464 0.14193535 0.18064056
00000000: abb9 9bbd a37a e23d eb5c 6dbe d05c 06bc
00000010: aa14 a23d 70d8 1bbe 2d23 cfbe e043 18be
00000020: 4054 4d3e 7b0a 333d 910e 17bc b704 083e
00000030: 27fa 78bd 6f1c ccbc d035 85bd 89de 773d
00000040: e6ca 82be 5766 c13d 41f3 633e ca45 233e
00000050: df82 b0bd c83c d8bd fe87 683e 7230 aebd
00000060: 5a6f 5438 c08e e6bd a0d9 08be 6865 0a3e
00000070: e5b7 fb3d 8c3a 963c 8057 113e d7f9 383e

mlp.8.weight f4 [16, 32]
-0.17337225 0.39549685 0.3002285 -0.4974548 0.01005562 0.42511714 -0.06583657 0.109715916
0.33889905 -0.3486531 0.12064521 0.31235135 0.2583154 -0.52106184 -0.016509576 -0.3866646
-0.41610754 -0.46402743 0.09465405 -0.26918197 -0.27092713 0.064406544 0.18072326 -0.28486404
-0.32530358 -0.12530994 0.032408558 -0.24895583 0.30373022 0.2432295 0.21185203 -0.010415021
-0.14818378 0.29757637 -0.017051885 0.18379168 -0.2605956 -0.2511675 -0.5066141 -0.37985623
0.22345161 -0.46218762 -0.2643574 -0.14627132 0.36131385 0.52998376 -0.119330294 -0.6203142
-0.13772231 0.2582309 0.72318316 0.21546231 -0.37188828 0.2101662 0.47459254 -0.12753393
0.13809645 -0.3342084 -0.42937565 0.11828193 -0.27165574 -0.15795818 -0.45899075 0.27472708
-0.40661314 0.2165164 0.16634151 -0.07970227 0.04190736 -0.17370291 -0.020218972 0.17040853
0.59773093 -0.37753892 0.05787499 -0.36802366 0.5540455 -0.2666099 -0.22334984 0.13041472
0.19486427 -0.1449511 -0.062042356 -0.024073754 -0.21150067 0.007587111 -0.08190707 -0.31199902
0.224932 0.6510548 -0.3165363 -0.37626445 0.3963462 -0.69027233 -0.009859606 -0.073307015
0.1644518 -0.39540482 -0.17848085 0.15180308 0.27873456 -0.092599146 -0.014932187 -0.5960513
0.46897224 0.36632878 -0.22838363 0.2794112 -0.5798945 -0.5221889 0.45920685 -0.21052319
0.49005762 0.064658776 0.43454713 -0.22681203 0.37981156 0.5603211 0.060654055 -0.93596846
-0.030447904 0.32437754 -0.0918738 0.3061547 0.4092845 -0.028674604 -0.1641663 -0.19425751
-0.18757367 0.065339066 -0.023308944 -0.59200233 -0.5112347 -0.46693572 0.15835564 -0.3189218
-0.074527465 -0.12750258 -0.18614988 -0.1466726 0.25591058 -0.07200103 0.009061819 0.49755105
0.13169973 -0.26239565 0.34045124 0.18785796 0.43925804 0.22706811 0.10228939 0.16335113
0.46266136 0.03840893 0.044501342 0.48419857 0.37810132 -0.41808802 0.3629901 -0.3773359
0.18603191 0.002975404 -0.60908616 -0.013124306 0.24132714 -0.57853675 -0.18017866 -0.4046348
0.24921694 -0.36160403 0.4519362 -0.37954366 0.0050543705 0.15119214 0.35094428 0.22619718
-0.118254445 0.3134756 0.39636314 -0.44646522 -0.2913938 -0.43607122 0.18226182 -0.3034298
0.31368917 -0.007370961 0.51801556 -0.056561686 -0.0616064 0.36469805 0.06889043 0.4867031
-0.20368956 -0.0071373493 -0.3115709 -0.4468236 0.37964228 0.35169512 -0.22086123 0.24006726
-0.42737955 0.088836364 -0.070009425 -0.82181644 0.18509604 -0.057203323 0.7597532 -0.38088346
0.34076074 0.043696824 -0.07250313 0.13931645 0.0009934983 0.17464118 -0.06389901 0.11353416
-0.5045778 0.25346527 -0.062839314 0.48679075 -0.11182194 0.10384051 0.080371566 0.13442612
0.36388347 0.34575877 0.15329154 -0.10921871 -0.06625897 -0.14752162 -0.08181061 -0.008034564
0.2536805 -0.013368563 -0.0646059 -0.45792142 -0.05597376 0.37894872 0.12969665 -0.14534879
0.16823027 0.1033211 0.10374802 -0.13195877 0.45957294 0.09137357 -0.1611495 -0.20715335
0.026460592 -0.46169567 -0.06707841 -0.25119358 0.023481049 -0.010715699 0.014061446 0.06768263
00000000: 7f88 31be 907e ca3e 8db7 993e 65b2 febe
00000010: 54c0 243c f4a8 d93e 53d5 86bd bdb2 e03d
00000020: 2d84 ad3e a982 b2be d614 f73d 84ec 9f3e
00000030: eb41 843e 4f64 05bf 173f 87bc e7f8 c5be
00000040: 0c0c d5be 0195 edbe fcd9 c13d 38d2 89be
00000050: f6b6 8abe 94e7 833d 850f 393e b3d9 91be
00000060: 318e a6be 4051 00be d6be 043d 47ee 7ebe
00000070: 8782 9b3e 2711 793e bdef 583e c4a3 2abc
00000080: 7dbd 17be ee5b 983e 65b0 8bbc e333 3c3e
00000090: c96c 85be 0799 80be 76b1 01bf 847c c2be
000000a0: 80d0 643e dba3 ecbe da59 87be 26c8 15be
000000b0: 21fe b83e 04ad 073f 7163 f4bd e9cc 1ebf
000000c0: 1407 0dbe d736 843e 8822 393f 27a2 5c3e
000000d0: 2468 bebe cf35 573e cbfd f23e 4198 02be
000000e0: 2869 0d3e 5d1d abbe 20d7 dbbe cc3d f23d
000000f0: 7616 8bbe cabf 21be d600 ebbe 07a9 8c3e
00000100: 992f d0be 7ab6 5d3e 6e55 2a3e f23a a3bd
00000110: 0da7 2b3d 2ddf 31be 42a2 a5bc 937f 2e3e
00000120: e504 193f c84c c1be 530e 6d3d 996d bcbe
00000130: edd5 0d3f 1881 88be d2b5 64be 708b 053e
00000140: 808a 473e 106e 14be 2020 7ebd 5236 c5bc
00000150: a293 58be 4d9d f83b e5be a7bd 56be 9fbe
00000160: 9354 663e 87ab 263f 0c11 a2be bca5 c0be
00000170: e4ed ca3e b0b5 30bf 2f8a 21bc fd21 96bd
00000180: 0d66 283e 8072 cabe afc3 36be 4472 1b3e
00000190: 4cb6 8e3e 9fa4 bdbd 22a6 74bc d196 18bf
000001a0: 211d f03e 728f bb3e 66dd 69be fc0e 8f3e
000001b0: f773 14bf 2cae 05bf 291d eb3e 6493 57be
000001c0: d5e8 fa3e d26b 843d f67c de3e 6a41 68be
000001d0: a976 c23e 3471 0f3f 6370 783d a19b 6fbf
000001e0: e26d f9bc d014 a63e 5528 bcbd 4fc0 9c3e
000001f0: bd8d d13e 01e7 eabc 361b 28be 71eb 46be
00000200: 5013 40be 7dd0 853d 66f2 bebc 778d 17bf
00000210: 47e0 02bf 3312 efbe fb27 223e b849 a3be
00000220: dba1 98bd 0990 02be 139e 3ebe 5831 16be
00000230: b606 833e 4775 93bd 0678 143c 03bf fe3e
00000240: 4bdc 063e b958 86be a04f ae3e d65d 403e
00000250: 6ee6 e03e 8b84 683e 1a7d d13d 8545 273e
00000260: f3e1 ec3e af52 1d3d 0a47 363d e0e8 f73e
00000270: 7f96 c13e a20f d6be d7d9 b93e 2c32 c1be
00000280: 267f 3e3e fffe 423b 12ed 1bbf 5407 57bc
00000290: 761e 773e fc1a 14bf c180 38be 4b2c cfbe
000002a0: ba32 7f3e 2a24 b9be 2e64 e73e 8c53 c2be
000002b0: 229f a53b 1dd2 1a3e f8ae b33e 3ca0 673e
000002c0: 632f f2bd e07f a03e 1cf0 ca3e 1797 e4be
000002d0: 9131 95be ba44 dfbe d8a2 3a3e 275b 9bbe
000002e0: de9b a03e 1a88 f1bb ab9c 043f 3aad 67bd
000002f0: fe56 7cbd b4b9 ba3e 6d16 8d3d 2631 f93e
00000300: ff93 50be 6de0 e9bb 3986 9fbe 10c6 e4be
00000310: 7960 c23e 6211 b43e 7229 62be 31d4 753e
00000320: 7ed1 dabe d7ef b53d 1a61 8fbd 9062 52bf
00000330: d189 3d3e 084e 6abd 307f 423f 2803 c3be
00000340: 3178 ae3e 71fb 323d 857c 94bd f9a8 0e3e
00000350: 4538 823a 23d5 323e 7cdd 82bd 9984 e83d
00000360: 032c 01bf 33c6 813e e6b1 80bd a33c f93e
00000370: e702 e5bd 55aa d43d d999 a43d 00a7 093e
00000380: ef4e ba3e 4b07 b13e 75f8 1c3e 0fae dfbd
00000390: c8b2 87bd e80f 17be 528c a7bd 67a3 03bc
000003a0: 69e2 813e d107 5bbc 1950 84bd ad74 eabe
000003b0: be44 65bd 9105 c23e 33cf 043e 50d6 14be
000003c0: 8e44 2c3e 039a d33d d879 d43d 3320 07be
000003d0: 254d eb3e 1122 bb3d 6004 25be 0220 54be
000003e0: e2c3 d83c 6063 ecbe 6860 89bd 729c 80be
000003f0: 545b c03c e690 2fbc fb61 663c 319d 8a3d

mlp.8.bias f4 [16]
0.02280106 0.10283333 0.007481722 0.05120468 0.07008938 0.20175222 -0.020614518 -0.0811072
-0.23556392 -0.36409405 -0.25489652 -0.273624 -0.09404869 -0.3171698 -0.087352 -0.62291867
00000000: 4ac9 ba3c 489a d23d 3c29 f53b 00bc 513d
00000010: 058b 8f3d 2298 4e3e c7df a8bc 881b a6bd
00000020: ab37 71be 896a babe cc81 82be 7218 8cbe
00000030: 999c c0bd 1464 a2be 9be5 b2bd 9977 1fbf
