mujoco_playground/_src/manipulation/airbot_play/onnx/airbot_play_policy.onnx (onnx, 26220 bytes, 12 tensors)

obs_mean f4 [63]
00000000: 7b23 1a3c faae 23bf 6742 923e 3d17 c73f
00000010: 9daa 32bf 5a60 c9bf 0c3e 013d da3b 01bd
00000020: ed18 803e 9672 2c39 f1da a23c b08c 7d3f
00000030: e1ee e039 7a53 4a3a 8f73 beb8 7a50 243b
00000040: 7439 0bbe c7cc 8dbd 9602 b6bb 6213 203d
00000050: 7d2e e3ba a00e 413c f609 41bc b00c 7039
00000060: 8515 3bb8 4032 3338 5078 75b9 dcf1 eb3a
00000070: 8ff4 82b9 41a0 7d3e b9d3 6739 3a1b e93c
00000080: f20a 793f 50d3 b63c d87b 86bb b288 73bc
00000090: ac75 f23e ba9e 58bf 3935 3a39 85d4 793f
000000a0: 7bb1 36ba c998 0dbb 4bf7 f839 80b5 793f
000000b0: 3a4b 253a f528 74b8 3cf7 0ebc 20b4 fd3a
000000c0: a045 c7b6 c1f9 193e ff0c af3c 51db 72b9
000000d0: cfee 56ba 3935 3ab9 586f c53c 7bb1 363a
000000e0: 69cc 55bb 6872 f1ba 1910 3e3c beb7 e9b9
000000f0: 7a63 3f3b d03f 8bb9 5296 823d
0.009407873 -0.6393887 0.28566286 1.5553967 -0.69791585 -1.5732529 0.031553313 -0.03155122
0.25019017 0.00016445885 0.01987979 0.990428 0.00042902588 0.00077181275 -9.0814305e-05 0.0025072382
-0.13596135 -0.06923824 -0.0055545075 0.039080985 -0.001733258 0.011783272 -0.01178216 0.0002289291
-4.4604316e-05 4.2723725e-05 -0.0002340984 0.0018001157 -0.00024977743 0.24768163 0.0002210875 0.028455365
0.97282326 0.022317559 -0.004104119 -0.014864134 0.47355402 -0.846172 0.00017758169 0.97589904
-0.00069691957 -0.002160596 0.00047486494 0.9754257 0.000630546 -5.8212278e-05 -0.008725937 0.001935605
-5.9387676e-06 0.1503668 0.021368502 -0.0002316062 -0.00081990374 -0.00017758169 0.024100944 0.00069691957
-0.0032623059 -0.0018420937 0.011600518 -0.00044578122 0.002920358 -0.0002655969 0.063763276

obs_std f4 [63]
00000000: b389 133e 3f78 633e 2451 ae3d 6e56 213e
00000010: f152 833e f3c1 ab3d 10b8 fe3b 26b2 fe3b
00000020: 921e 713d f495 703d eae6 533a 4ded ac3d
00000030: e650 903d a0a9 753d 9e68 6d3d 693b 693e
00000040: a229 033f 66c4 cf3e c5da cb3e cd8c e33e
00000050: adf4 123f 48d4 063e 53d2 063e 67ed 973c
00000060: 098c 953c d746 523c 8f05 443f 5b90 2a3f
00000070: 1c0f 3e3f 586b 753d 13fa 653d cf31 0b3d
00000080: 7607 cb3d 2bf8 e13d 9d46 1d3e 05cf 193e
00000090: ec25 0a3e d236 d93d 9f5c a83d 8dd2 1f3e
000000a0: f13a c23d e1be a53d fba0 c93d 9039 213e
000000b0: 6eb0 9d3c 6faf 803c 6bc9 0a3d de81 ae3d
000000c0: 336c a83d 47aa ec3c e001 163e 096e 9f3d
000000d0: f166 ae3d 9f5c a83d 8dd2 1f3e f13a c23d
000000e0: 53c5 2f3d d5eb 213d 0f86 d73c dba4 d63c
000000f0: 72c7 c23c c75d b83c 9435 853c
0.14407997 0.22213839 0.0851157 0.15755627 0.25649217 0.08386602 0.007773407 0.007772702
0.058867045 0.058736756 0.000808342 0.08443699 0.0704668 0.05997622 0.0579611 0.2277657
0.512354 0.40579528 0.39815345 0.4444336 0.57404596 0.13166916 0.1316617 0.01854582
0.01825525 0.012834272 0.7657098 0.6662652 0.74241805 0.059916824 0.056146692 0.033983048
0.099135324 0.110336624 0.15358968 0.15020378 0.13491029 0.10606159 0.08220791 0.15607662
0.094838984 0.08093048 0.09845158 0.15744615 0.019249167 0.015708653 0.033883493 0.08520864
0.08223762 0.028889788 0.14649153 0.077846594 0.08515728 0.08220791 0.15607662 0.094838984
0.042912792 0.039531548 0.026309041 0.026201656 0.023776744 0.022505654 0.0162609

mlp.0.weight f4 [32, 63]
00000000: 7d2a 103d 4476 653e c7c1 f73d 584e fa3d
00000010: c7a4 e5be 748e 983d bb02 da3d c126 973d
00000020: fa1b 283f c254 03be 9bdf c23d 5306 c93d
00000030: fb09 97bc 0127 c2be 63e1 113e 9ba3 3a3d
00000040: acc8 db3c fe64 133e de2d d33d 0eb4 a8bd
00000050: ef2f e13c e89c b4bd 766f dcbd 8a05 90be
00000060: c76d 5bbe 997b 523e 9431 da3d 6732 073d
00000070: 914a b7bc bd59 2abe e85a 583e 57ba ea3e
00000080: 7d57 8ebc 7de6 aebd a694 253c 0585 85bd
00000090: 65b9 ba3d 3964 07be 022d 4fbd 3bd4 913d
000000a0: cca4 0d3e 0b1a 90be 4142 c83d 0134 97be
000000b0: a792 e43e a826 a5be a751 adbe 3370 573b
000000c0: 838a 1dbe df83 783d 1e5c 163e ddf4 24be
000000d0: 9838 2e3e 8b44 3f3d 14ac 36be 12d6 6dbb
000000e0: dbd1 0fbd 3a10 083e 3b61 603e 3304 573e
000000f0: 19ab c2bc ff25 0e3d e23c a63c 176b 3f3e
00000100: c171 e43b d6a1 d33d 12f2 cabe a807 a93d
00000110: 7711 da3c f0b7 eb3d c5e3 56bd e202 12be
00000120: 74bf 18be 3b8f eebe 51bc 3dbe b253 36be
00000130: 1d7c d5be 6d65 efbd 6821 d13d 230c dd3e
00000140: 0ccf a13e 4374 15be 0fa6 203e cb44 02bd
00000150: bad8 f8bc 1a51 dabd eec5 02be bc29 f63d
00000160: f022 bf3e d860 f0bd 3afd 113e 03ad 933d
00000170: 48ea f03d 24bc 26bd 4aeb be3e 239c 2f3e
00000180: d147 a53e bae2 83be fb02 c8be afc7 273e
00000190: b8d9 9ebd ffd0 bcbe 9b95 f2bd 661d 2a3e
000001a0: 9e8f 34bc d0e6 bebd a61b e6bd 97c3 a3bd
000001b0: 6409 6a3d 5f55 b1be 81a4 00be 8004 62be
000001c0: 4b65 073e f939 563e 07dc 8f3a 4e14 ea3d
000001d0: a928 af3e 804e 133e 1484 39be c5a0 513e
000001e0: b970 663d 6bcc d83c f3d3 c2bd 40d2 83bd
000001f0: 13d4 d2bc 6da3 753d 49d8 12be bd87 723e
00000200: ddff 813c 900f 933e 46ff b6bd c6cc 9abe
00000210: 27e4 ffbd a0bd 1ebe 247e db3d f001 1abe
00000220: 139a 99be c8f1 133e a9b2 84be b313 cfbd
00000230: 0e80 e13d 612d 83bd 1845 503e bc95 a7bd
00000240: b62c 7a3e 7a90 01bd c6e2 c73c 304f 8e3c
00000250: a8ab 50bd cdf6 62be 6aef 133f c9af 9b3e
00000260: fa74 853d 0664 15be 4ea3 7bbc 4b48 513c
00000270: 9d7b 3f3e 905c 9fbe 3738 ca3e a941 1abe
00000280: b5e6 06bd 5650 1c3d 0cf3 9c3b b934 24be
00000290: 946f 063e 8f01 e4bd 7fbd 383e d36e 9b3c
000002a0: f09e 91ba 0256 943d 9a12 7b3e 8ef5 7ebf
000002b0: 8b16 7a3e a13d 343e dc69 81bc ba3f 0bbe
000002c0: 1484 debd c944 a8be 93d9 33be 973f d1bd
000002d0: 3bc5 313c aff4 09be 1f6d b0bd 6e06 2fbe
000002e0: fa45 d9bd cc08 0d3e fa80 5fbc 2476 0bbc
000002f0: c6d8 073e e72a 563e d775 87be f16d 1a3d
00000300: 6ff5 963e ba81 2cbe 1716 913e 58cf 113d
00000310: a492 9cbc c1c7 423d 3080 0bbf 242e a5be
00000320: c3bb 4f3e c08c a33d d047 41bd 34b4 a13e
00000330: ea41 cb3d cb3f ac3d a851 1d3e 0a01 2c3e
00000340: d07e 353e b90d c1bc ff05 403e 3c42 a9bd
00000350: c422 d4be 7ba0 c93d ba30 8f3c 9ed5 68be
00000360: d4a1 e53d f039 d7bd a554 ae3d a7cd f2bb
00000370: 3a51 acbe 8851 283e 7cb2 1a3e 805a 72bb
00000380: 6129 913d 1add 8bbc 60fd 37be 9371 a83d
00000390: 8194 9dbd e5e6 82be 649a 7ebd 5dbd f03c
000003a0: 9c0a 07be d71c 96be 0e1c 5cbd 9f5e 633e
000003b0: 9977 cd3d fd49 d6bd cee2 5b3e d219 1c3e
000003c0: eecf bf3d 6b6d b23c 73c6 9bbe 2098 0f3d
000003d0: 54a9 3d3e 4458 39bc 2269 9cba 95dc 87be
000003e0: 0e26 bdbd f47e 0c3e 89ee 163d b88f 743d
000003f0: b004 96bd 29fe dabd 2bb6 9dbe e3ab 47be
0.03519677 0.22408396 0.12097507 0.12221974 -0.44852278 0.07449046 0.10645052 0.073804386
0.6566769 -0.12825301 0.095153056 0.098156594 -0.018437376 -0.37920383 0.14246134 0.045566183
0.026829086 0.14393994 0.10311483 -0.08237468 0.027488677 -0.0881899 -0.10763447 -0.28129226
-0.21428595 0.20554961 0.106539875 0.03300705 -0.022374423 -0.16635795 0.21128428 0.4584529
-0.017375702 -0.08540056 0.010106241 -0.06519512 0.091173925 -0.13221826 -0.050580032 0.07120558
0.13832396 -0.2814487 0.09778262 -0.29531863 0.44643137 -0.32256055 -0.33851358 0.0032873272
-0.1538487 0.060672637 0.14683577 -0.16109033 0.17013776 0.046696227 -0.1783908 -0.0036290926
-0.035112243 0.1328744 0.2191209 0.20997696 -0.023763226 0.034704205 0.020292703 0.18693195
0.0069715683 0.10333602 -0.3963781 0.082534134 0.026619656 0.11509693 -0.05246331 -0.14258912
-0.14916784 -0.4659365 -0.18528868 -0.17805365 -0.41696253 -0.11689267 0.1021145 0.43173322
0.31603277 -0.14595132 0.15688346 -0.031803887 -0.03037678 -0.1066 -0.12770817 0.12019679
0.37331343 -0.117372215 0.14256755 0.07210734 0.117634356 -0.04070677 0.37288886 0.17149405
0.32281354 -0.25758916 -0.39064774 0.16384767 -0.0775637 -0.368782 -0.11844941 0.16612777
-0.011020569 -0.09321368 -0.11235742 -0.0799629 0.05713786 -0.34635445 -0.12562753 -0.22072029
0.13222234 0.20920552 0.0010975607 0.11429654 0.3421071 0.14385414 -0.1811679 0.20471485
0.056259844 0.026464662 -0.09513082 -0.064365864 -0.02573589 0.059970308 -0.14340319 0.23684593
0.015869075 0.2872281 -0.08935408 -0.30234355 -0.124946885 -0.15502024 0.10717419 -0.15039802
-0.30000362 0.14447701 -0.25917557 -0.10111179 0.110107526 -0.0640514 0.20338857 -0.081828564
0.24431118 -0.031631924 0.024400126 0.017371744 -0.050944954 -0.2216446 0.5778719 0.3040755
0.06516452 -0.14588937 -0.015358759 0.012773584 0.18699498 -0.31125307 0.39496014 -0.1506411
-0.032934863 0.03816255 0.0047897156 -0.16035737 0.13128501 -0.1113311 0.18041037 0.018973744
-0.0011109989 0.07242967 0.24518815 -0.99593437 0.24422662 0.17601635 -0.015797548 -0.13598529
-0.10865036 -0.3286498 -0.17563467 -0.10217207 0.010850246 -0.13472246 -0.08614563 -0.17092296
-0.1060905 0.13772887 -0.01364159 -0.008512054 0.13266286 0.20914803 -0.26457092 0.037702505
0.29484126 -0.16846362 0.28337166 0.03559813 -0.019112892 0.04755378 -0.54492474 -0.32261765
0.20286469 0.0798583 -0.047187626 0.31582797 0.099246815 0.08410605 0.1536318 0.16797271
0.17724156 -0.023566114 0.18752287 -0.08264586 -0.41432774 0.09845062 0.01747929 -0.22737738
0.11212507 -0.105090976 0.085122384 -0.0074097696 -0.3365572 0.16437352 0.15107149 -0.0036980212
0.070879705 -0.017073203 -0.17967749 0.082247876 -0.076943405 -0.25566784 -0.062158957 0.02938717
-0.13187641 -0.29318878 -0.053737693 0.22204064 0.10032577 -0.10463331 0.21473238 0.15244225
0.09365831 0.02178069 -0.30424842 0.035057187 0.18521625 -0.011312548 -0.0011933187 -0.26535478
-0.09235774 0.13720304 0.03684858 0.059707373 -0.07325113 -0.106930085 -0.30803046 -0.19499163

mlp.0.bias f4 [32]
00000000: 1bb2 fd3d 32bb 4ebe 97ac 92bd de5c 89bd
00000010: 9ac0 553d 11a6 40bc 552e 81be dfdf 39bd
00000020: 06e5 613e 1fef 603c 3e39 89bd 92c8 02be
00000030: 6969 13be 1557 363e 1844 cd3c 59d1 523e
00000040: 2aed 8abe 9d7b 85be 32d6 40ba d057 7a3c
00000050: e47f 9cbd ac6f cabd df85 30bd 1781 ecbc
00000060: a30c 4d3d 78de 41bd 8b25 483e d92c 87bd
00000070: d557 8dbe 0bd3 043d 2a00 5abd 7d41 48bd
0.123874865 -0.20188597 -0.07161825 -0.06707166 0.052185632 -0.011758343 -0.2523066 -0.045379516
0.22060022 0.013728886 -0.06700371 -0.12771824 -0.1439568 0.17806657 0.025056884 0.20587672
-0.27134067 -0.26070872 -0.00073561363 0.015279725 -0.07641581 -0.09884581 -0.04309642 -0.028870149
0.05006088 -0.047331303 0.19545572 -0.06600351 -0.27606073 0.03242783 -0.053222813 -0.04889058

mlp.2.weight f4 [32, 32]
00000000: 60e0 a43d 80c9 f1bc 9ff2 0fbe 9cb5 183e
00000010: a3c8 2f3e 2cb8 953d ae51 793e e7b9 a03d
00000020: 7ce4 003e f59e e6bd 9fdf d23e 5263 0e3e
00000030: 8a82 a5be c2f5 8bbe bdc8 a73e 6111 93bc
00000040: d36e ccbd a374 0a3e bced ae3e 48db a73e
00000050: 4a61 e5bd 7a0a 013e c775 5fbd 0fdb 0abe
00000060: 8a8f 66be d236 b03e 5e28 84be ffcf abbe
00000070: e09b 5dbe 18ff ce3d 9937 193d 300a 8c3d
00000080: 632f bcbe 69f5 6f3e 8515 a73d 638a 1e3d
00000090: 8776 963e e42d bfbe da42 193e a23a ac3d
000000a0: 0780 a93e ad63 6abe 981c 3ebe 66dc 80be
000000b0: 43d7 80be 49e9 423e e8e0 99be 8f2c b0be
000000c0: 8458 5c3e 6772 663e f566 f0be a436 9a3e
000000d0: 293f 32bd 3cae 343e c9b8 e4bd 3937 28bd
000000e0: a62a cc3d 88ce 9c3e b277 143f f821 9b3e
000000f0: 6276 f43e 63fc 4ebd 50f8 6cbe bbcd 00bc
00000100: 6163 e4be 4913 cabc 5b78 e8bd da12 233e
00000110: 68b3 b73e 51da 2fbd f163 0a3e 545c 4b3e
00000120: 2dbe 33be 55e2 473d 69bf 99bd 0493 54be
00000130: ba15 0d3c 1973 ddbe f886 8dbe 9126 253e
00000140: b90a f1bc 6b36 88bd c4a1 d3bd 09a1 cc3a
00000150: 7e89 543e 4063 27bd ca54 de3c ece7 8cbe
00000160: 4195 a4be 7eb4 5b3e d21c 54be bf08 833d
00000170: f8b8 f8bc 082c 1bbf 9634 1ebf d7af d53e
00000180: d0cd ac3d 1f0f 70bd b3d2 cebe 9eba 4b3e
00000190: af07 a5bc 33f7 6f3e 407d 26bd c69a 093e
000001a0: a04e 863e 1154 553e 1b49 213e 8305 fcbe
000001b0: c360 19be 8e99 fabe 561e a6be 2e8f f3bd
000001c0: 6610 37be 6ecf 443c 4095 7abd 8a34 01bd
000001d0: c399 7cbe 0869 87bc 87e1 4cbe b263 213d
000001e0: c0ab 163e 6c70 7abd d6ab fabe 547e c73d
000001f0: 00f3 933d 1ea6 163e 7199 f73c 7900 b03e
00000200: 9690 1ebd f6db 94bc 8234 16bf 8eef a33c
00000210: a808 ce3e 1052 b93e 90c1 e4bc 9d3d b33d
00000220: 5a9b 963d ee1f 0f3e 5596 9ebe be21 1c3e
00000230: 3414 9bbb eac8 6e3e 75d4 2a3e 6a25 9fbe
00000240: 0fed 293e 96ee 64be b5e6 85be 0137 64be
00000250: c0a4 553d b6ae 0abe 887a c4be ef9c 0d3c
00000260: 3cd9 62bd 5a6c 8b3d 9c1d e2bd 93d6 333e
00000270: 325a df3d 744f a03e 0b49 b23d 8eb8 21bf
00000280: 93e3 0ebf 86cc c0bd c67b c23d 8a84 9cbd
00000290: 338f 833c 6e99 a9bd 37e8 edbe d21a f83d
000002a0: 84fa 46be 18ef 8dbe 38dc afbe 0f50 6cbe
000002b0: b7f9 43bd fd51 aebd cbda 23bc 4c06 4cbf
000002c0: a29d 3bbe 87d4 dfbe c3df 72bf 9708 1d3d
000002d0: b044 7c3e cf96 a43e d8e2 0ebe 3e23 1a3e
000002e0: 624b bfbe 3a7b 46bc 83d6 573e e0c5 41be
000002f0: bb6b f5bd c651 943d 2fa5 3dbe 1990 a13d
00000300: 22e6 973d 933b d33e 51d5 c73e 47d8 323e
00000310: 8c5b ca3a 9a8b 5bbe c0b9 f03e 8610 35be
00000320: 4af4 eb3c 48f8 1e3d e284 733d 6c50 f1bd
00000330: caa5 b1bd b841 1e3e d70d 883e 72a8 adbe
00000340: aa37 4bbe a75a a4be 68cd 63be 7d36 89be
00000350: a591 d23d 2b06 3c3e b84d b8be cfc0 ac3e
00000360: d523 9ebd 274c bdbe 6cfe 123e ecf7 153e
00000370: fd25 7dbd a910 92bd b31e 14be a7d0 9abd
00000380: 2538 973e b339 48be e109 a8bc 6d7a 9dbc
00000390: 96bb a9be 7387 76bd 14e0 e6be 14dd e73d
000003a0: 6b55 523e ff1c 223d 2c38 16bf c69d bb3d
000003b0: 3895 6ebe adeb e8bd 7d1b ab3d 0970 bfbb
000003c0: ffba 483e 8319 1bbe a561 a0be 85a2 8f3c
000003d0: dd7e b8bd b290 dabe a463 03bf be4f 583e
000003e0: 650c b5bd ef32 07bf 3d78 033c 5113 9fbe
000003f0: 6488 e9be ac61 913e a772 063c 4243 e0be
0.08050609 -0.029515028 -0.14057396 0.14913028 0.1716638 0.073105186 0.24347565 0.07847958
0.1258716 -0.112607874 0.41186234 0.13905075 -0.32326156 -0.27335936 0.3277034 -0.017952623
-0.099820755 0.13521056 0.34165752 0.32784486 -0.11200197 0.12601653 -0.05455568 -0.13560127
-0.22515693 0.34416825 -0.25812048 -0.33557126 -0.21641493 0.10107249 0.037406538 0.068378806
-0.36754903 0.2343346 0.081584014 0.038706195 0.29387304 -0.373397 0.14966908 0.08409621
0.3310549 -0.22889586 -0.18565595 -0.2516815 -0.25164232 0.19034304 -0.30054402 -0.34408996
0.21518141 0.22504579 -0.4695355 0.30119812 -0.043517265 0.1764459 -0.111680575 -0.04106829
0.09969072 0.3062632 0.5799514 0.30299354 0.4774657 -0.050533663 -0.23141599 -0.00786155
-0.4460707 -0.024667399 -0.11351081 0.1592516 0.35879064 -0.042932812 0.13514687 0.19859439
-0.17553015 0.04879983 -0.07507212 -0.20759207 0.008611137 -0.43251875 -0.27642035 0.16127993
-0.029424058 -0.066510044 -0.10333589 0.0015611957 0.20755574 -0.040866137 0.02714004 -0.27520692
-0.32145122 0.21455571 -0.20714119 0.063981526 -0.030361637 -0.6061406 -0.6179899 0.41735718
0.08437693 -0.05860817 -0.40395126 0.19895408 -0.020145265 0.23434143 -0.04064679 0.13437948
0.2623186 0.2083285 0.15750544 -0.49222955 -0.14978318 -0.48945278 -0.3244502 -0.11892544
-0.1787735 0.012012346 -0.061177492 -0.031544246 -0.2466803 -0.016529575 -0.20007907 0.039401717
0.14713955 -0.06114237 -0.48959225 0.09740892 0.07224083 0.14711806 0.030224534 0.3437536
-0.038712107 -0.018171292 -0.5867387 0.02001169 0.4024098 0.3619542 -0.027924329 0.08751986
0.0735385 0.13977024 -0.3097407 0.15247247 -0.004732633 0.2331883 0.16682608 -0.31083232
0.16594337 -0.22356638 -0.26152578 -0.22286607 0.05215907 -0.1354321 -0.38374734 0.008643373
-0.055382952 0.06807776 -0.11040804 0.17562322 0.10905875 0.31310618 0.08705338 -0.63172233
-0.55816 -0.0941401 0.09496264 -0.07642467 0.016059494 -0.082812175 -0.46466228 0.121144906
-0.19431502 -0.27721477 -0.343477 -0.23077415 -0.04784557 -0.08511732 -0.010000895 -0.7969711
-0.18321851 -0.43716833 -0.94872683 0.03833827 0.24635577 0.32146308 -0.13953722 0.15052506
-0.373622 -0.01211434 0.21077923 -0.1892314 -0.119834386 0.072421595 -0.18520044 0.078888126
0.07416941 0.4125639 0.39029935 0.17465316 0.001543866 -0.21439973 0.47016716 -0.17682084
0.02880301 0.038811 0.0594529 -0.117829174 -0.086742 0.15454757 0.2657306 -0.33917576
-0.19845453 -0.32100412 -0.22246325 -0.26799384 0.10281686 0.18361728 -0.35996795 0.3374085
-0.07721678 -0.36972162 0.14354867 0.14645356 -0.061803807 -0.07132084 -0.14464836 -0.075593285
0.29535022 -0.1955326 -0.020512523 -0.019223416 -0.3315093 -0.06018777 -0.45092833 0.11321464
0.20540397 0.039578434 -0.5867946 0.09160952 -0.2329911 -0.113730766 0.08354852 -0.005842213
0.19602583 -0.1514645 -0.31324497 0.01753355 -0.09008572 -0.4268852 -0.51323915 0.21124169
-0.08840255 -0.52812093 0.0080242725 -0.31069425 -0.4561187 0.2839483 0.008206046 -0.43801314

mlp.2.bias f4 [32]
00000000: edba 57bc 4366 143b 0724 00be 0db4 863c
00000010: e023 893e e013 b33d eb08 d7bc 74fd b13e
00000020: 1d8f c83c 74e3 a4bd 9b1b 163e 9089 0bbd
00000030: 7308 8bbd fdb3 f43c 3dba fc3d 1a90 0a3e
00000040: 0993 9ebd dc51 54be 08d2 093e 4d1e d83d
00000050: fab8 5b3d beb3 dc3e b328 d1bb 3306 273d
00000060: 7a9a e73d e930 8cbe b562 b7bd 8972 a53e
00000070: 8f54 9c3e ab9b 563e 9e26 d0bd 121f 32be
-0.013167125 0.002264396 -0.12513743 0.016443277 0.26785183 0.08744025 -0.02624937 0.34763682
0.024482304 -0.08051196 0.14658968 -0.034066737 -0.06788721 0.029870981 0.1234021 0.13531533
-0.077428885 -0.20734352 0.13459027 0.105526544 0.053643204 0.43105882 -0.0063830256 0.040777396
0.11308761 -0.27381065 -0.08954374 0.32313946 0.30533263 0.2095782 -0.10163616 -0.17394665

mlp.4.weight f4 [32, 32]
00000000: 18e0 07bf 04fc 39bd 3b31 9abe af74 d9be
00000010: 28b9 493e 16e8 853e bf75 693e 4f9b a2bd
00000020: 63b2 4e3d 3b43 203e ccca 1fbe 0536 4ebe
00000030: accb 593e 10dd 98bd 4047 323e f5fb 8dba
00000040: 7283 c8bd e4d0 133e e39a 163c 92f4 10be
00000050: 5a51 3b3e 6211 203d 2b44 21bf f6fe b13d
00000060: b94d adbd 1eb9 963e ab44 6fbe db09 07be
00000070: 9c79 e2be ac2d d23e 9bdc 18be 3ebe 32be
00000080: 3078 5dbe 7be9 9bbe df9f 8cbd d026 313d
00000090: 0814 cebe 2c4b ef3e 4fb7 7cbe a804 81be
000000a0: aa37 9abe 3106 333e 0f03 873d 9855 1fbe
000000b0: aa63 ec3e 1a5c abbe 703e d9be 884d 8c3e
000000c0: 0881 9cbe badd 0cbe e70b 73ba 35b3 3b3e
000000d0: 4aab c4be 640d 913e 0d7a 53bb 5219 153f
000000e0: 5efa 803e 0ed1 37be 2c4b 91bd a7c1 d43e
000000f0: 8f31 f4be e1ee c8be ba5f a4bd 030e 823d
00000100: 37d0 69bd c960 f73d 81c6 d3be b4c8 0f3e
00000110: 092c bdbd 10af d83d b25a 84be 38bb 853d
00000120: c7a5 f6be ef9d d4bc 152c 0bbd df75 073e
00000130: a136 37be 19e7 e23c 3086 49be 703c d7be
00000140: 9f68 7f3d 3076 20be c4c4 95be f257 4e3d
00000150: 0730 963d 1ff4 a93e 9f13 33bf 0f2f cd3e
00000160: b98e 2d3e e279 0f3e fa15 31be 1596 13be
00000170: 99e5 7a3e a224 2c3e 380a 833d 53bf 96be
00000180: 1e8f 303e e5c1 ccbe 6adf 953e cf75 adbd
00000190: 5bc8 2b3d 8f36 48bf 564b 45bd 724d d7be
000001a0: 115f 603e 4e95 c63d bed4 a8be 232b 203d
000001b0: 4013 b73e e4ed a33e 4d0d 73be 939e 81be
000001c0: 9935 5bbd fc86 7c3e bb14 38bc b263 d9bc
000001d0: 735c d4bd d10e 03bf a561 3fbe c5ae 493e
000001e0: 32fa 08bf f41f 0a3e 940d ed3d a4f8 a6be
000001f0: 5711 863e b004 ccbe 4243 6bbe f360 d23d
00000200: 9640 5ebe a966 8cbc 24f6 cebe 4086 a23d
00000210: 66e0 513d cf58 a73e 0592 23be 4fba 9f3d
00000220: 56e7 363e d2e2 06be 0715 b5bd da6d f4be
00000230: 331e 7abe 3c6a 70be dbcd 64bd 96d1 77be
00000240: d7df 9dbe 465c eabe 4f59 0c3e a2a2 cf3d
00000250: f693 0ebe 10ae 303e 29fb ffbc fea2 b03e
00000260: 89d8 29be 8985 a6be 7f35 fcbe 3794 a33e
00000270: bad6 09be 46ff 573e dc08 843e f098 d1bd
00000280: f418 353e 2866 fdbe 8cbb babe 65f9 0d3e
00000290: 0e76 42bd 0b48 3c3e 78ef 65be 9741 963e
000002a0: 973f 06be cf46 e33d 831d a4bd 62b2 a43e
000002b0: d5a6 b5be 7f72 7bbd 8f26 7cbe f94b 3cbe
000002c0: 4e08 84be 0cc1 a4bd c46f b9be 0261 8a3c
000002d0: 56ae 823d 0ebe cb3e 32d6 fbbe ecf8 223e
000002e0: 8dae 6cbd 087b 283c 0cb6 c4be aec7 693c
000002f0: e921 7a3e a674 e3be 3221 ddbe 361d 5a3e
00000300: 2ca4 063d d82f 9fbe b7ee 9d3e 0c92 73bc
00000310: ab76 64bd b6a4 30be ef57 6dbe cd2e 593e
00000320: f34e 4c3d 5baf 5cbe c3bb 27be 5cc3 bd3e
00000330: ccb6 a9be 7cbd b1be 8b0b 823d 9423 053e
00000340: 4247 88be 1fb7 a43d 3fed d0bd 8c6a cebe
00000350: ec12 4dbe eee7 9fbe efd6 acbe e316 0dbe
00000360: d6d3 4fbe e695 c9bd 4e61 053e 22aa c1be
00000370: 3844 943d c2ed 833e 53d5 a83c a3ae e8be
00000380: 19d4 803e 6cf8 ea3d 0059 093d a087 b23d
00000390: 746d b9be 41e4 29be 01b9 a23d f23d 9dbe
000003a0: fc71 67be f820 123e aff6 9d3d 97a6 ce3b
000003b0: e06d 49be 47bf 873d 2178 dbbd cce7 83bd
000003c0: 15c1 793e 22c9 aa3d 5db0 08be d577 e5bd
000003d0: 8238 06be aa77 d83d c2df 2b3e 94b2 24be
000003e0: 99aa 893e 0cdf a73d 7e2e c43e 03b0 e73d
000003f0: e7bb fdbd bdb3 74be 9208 503e 3f16 743e
-0.53076315 -0.045406356 -0.30115685 -0.42471835 0.19699538 0.2615363 0.22798823 -0.07939779
0.05046309 0.15650646 -0.15604705 -0.20137794 0.21269101 -0.07464039 0.17409992 -0.0010832535
-0.09790696 0.14435154 0.009192201 -0.14155796 0.18292752 0.039079078 -0.6299464 0.08691208
-0.0846209 0.29438108 -0.23366039 -0.13187353 -0.44233406 0.4105047 -0.14927904 -0.17455384
-0.21627879 -0.3045157 -0.068664305 0.043249905 -0.40249658 0.4673704 -0.24679302 -0.25198865
-0.30120593 0.1748283 0.0659238 -0.15559995 0.46169788 -0.33468705 -0.4243045 0.27402902
-0.30567193 -0.13756457 -0.0009271488 0.18330081 -0.38411933 0.2833053 -0.0032268793 0.5824176
0.25191015 -0.17950842 -0.07094416 0.41553995 -0.4769406 -0.3924475 -0.08026071 0.06350329
-0.057083335 0.12079007 -0.41362384 0.14041406 -0.09236915 0.105802655 -0.25850445 0.0652985
-0.48173353 -0.025954215 -0.033977587 0.13228558 -0.17891933 0.027698087 -0.19680095 -0.42038298
0.062355634 -0.15670085 -0.29251683 0.05037684 0.07333379 0.33194062 -0.69951814 0.40074965
0.16948976 0.14011338 -0.1729354 -0.1441272 0.24501647 0.1681085 0.063984334 -0.29442844
0.17242095 -0.3999168 0.29272014 -0.08469736 0.04193912 -0.7820825 -0.04816755 -0.42051274
0.21911265 0.09696446 -0.3297481 0.03910364 0.35756874 0.32017434 -0.23735543 -0.25316295
-0.05351791 0.24660867 -0.011235411 -0.026536796 -0.10369196 -0.51194483 -0.18689592 0.19695576
-0.5350677 0.13488752 0.115748554 -0.32611573 0.26185104 -0.39847326 -0.22974876 0.10272398
-0.21704325 -0.017138796 -0.40422165 0.079357624 0.051239394 0.32684943 -0.15973671 0.077992074
0.17861685 -0.13172463 -0.08841901 -0.4774006 -0.24425583 -0.23478025 -0.05586038 -0.24201044
-0.3083484 -0.45773524 0.13705944 0.101384416 -0.1392363 0.172539 -0.031247692 0.34499353
-0.16586508 -0.32523754 -0.49259564 0.31949016 -0.13460818 0.21093473 0.2578801 -0.10234249
0.176853 -0.49492002 -0.36471212 0.13864668 -0.047475867 0.18386857 -0.22454631 0.29346916
-0.13110195 0.1109749 -0.080134414 0.32167345 -0.35478845 -0.06138849 -0.24624084 -0.18388356
-0.25787586 -0.08044633 -0.36218083 0.01689196 0.06380908 0.39793438 -0.49186856 0.15915269
-0.057783652 0.010283239 -0.3842014 0.014268799 0.24426998 -0.44424933 -0.4318939 0.21300206
0.03287141 -0.3109119 0.30846187 -0.014866363 -0.055777233 -0.17250332 -0.23178075 0.2120926
0.04987998 -0.21551268 -0.16380219 0.3706311 -0.33147275 -0.34714878 0.06349858 0.13001853
-0.26616865 0.0804274 -0.10201501 -0.40315664 -0.2002675 -0.31231636 -0.3375773 -0.13778262
-0.20295653 -0.09843044 0.130254 -0.37825114 0.07239574 0.25767332 0.020609533 -0.45445737
0.25161818 0.11473164 0.033532143 0.08717275 -0.3621632 -0.16590978 0.07945443 -0.30711323
-0.22602075 0.14270389 0.07713067 0.00630648 -0.1967082 0.0662828 -0.10716272 -0.06440696
0.24390061 0.08339144 -0.13348527 -0.11204497 -0.13107494 0.10569699 0.16784576 -0.16083747
0.26887968 0.0819684 0.3831672 0.113128684 -0.12389355 -0.2389669 0.2031577 0.23836611

mlp.4.bias f4 [32]
00000000: cf4a 6e3d 19dd 063e c258 93bd 4416 c9bd
00000010: 5924 e63d 772a f43d feb9 573d f0db 8cbe
00000020: e220 983d 5756 42be f4a4 5ebe 366a cb3d
00000030: f267 fb3c f070 67bd 195b 1f3e 8d01 1fbe
00000040: 67c2 8abe 247a ea3c 2728 dd3d 6203 3d3e
00000050: d5d1 df3d 6854 3ebe c9b2 a8bd 125e 993d
00000060: f11f 06be 6fc0 2fbd 4ed4 22be 632f 3f3d
00000070: 0132 e3bc bb85 d0bd 9e81 6c3e 87fe 56bd
0.05817681 0.1317028 -0.071946636 -0.098187 0.112374015 0.11922162 0.05266761 -0.2751155
0.07428147 -0.18978249 -0.21742612 0.099323675 0.030689213 -0.05650419 0.15562095 -0.15527935
-0.27101442 0.028622694 0.10798674 0.18458322 0.10928694 -0.18586886 -0.082372256 0.074886456
-0.13098122 -0.04290813 -0.159013 0.04667605 -0.027733805 -0.10181757 0.2309632 -0.05248883

mlp.6.weight f4 [32, 32]
00000000: 28f6 353e ab53 5abe b5d2 bcbd 7437 9ebe
00000010: f337 d33d 9c53 10bd f7fa 163e 825f a5be
00000020: cff6 003e 0d29 97be 0215 d8be bded 90be
00000030: c8d9 8fbe c035 90bd 3f0d c43e ef2b 3e3d
00000040: ff40 183c 62b4 7b3d 5c19 24bf deab acbe
00000050: a0e2 cf3d eaaa 8abe 620c 73be a226 443e
00000060: 5eab a2be 8223 8ebd 7c88 b03e a547 b4be
00000070: 8a2d 71be fbfb e0be 1573 d5bd c53f 59be
00000080: 44fe 083d f146 0c3d 594d 72be 0787 823e
00000090: 6fcf 4fbe 5c21 323e 9a9e b53e 1e4c a7be
000000a0: 6011 b8bd 29d6 0a3e 4b20 ad3e 9cc5 c2bd
000000b0: 6ff2 90be dc77 073d bbd9 a43c 49ab 6dbd
000000c0: ad66 e0be 2196 b93d f48c b4be 9164 543c
000000d0: d922 e1be 5a7f 083d 51f7 82be c68d febd
000000e0: 1659 43be 3859 0d3d 02ce 353e 052d 903e
000000f0: 9bad 243e eeeb 67be b8d1 71be 5b2c 0c3f
00000100: d097 943e 9dd8 723e b29a 193e ab94 67be
00000110: b48d 7d3e 94d9 57be c4c4 5c3d 2006 acbe
00000120: 2d9b cc3d 030f cc3e efcd 943e a0b2 abbe
00000130: 5a03 3cbd 73c8 9fbe 6b33 14be bf14 6bbd
00000140: 33cd 973e 28ea 73be 5e7a ae3d 42f5 203e
00000150: 88b6 8abd 03cf b3be 4bc0 86be 172e 2abf
00000160: 2202 9dbd 02ef b23d 98b9 fabb 0b91 aebd
00000170: 3b1b 1f3e be5b f0bd b118 13be d2a1 76be
00000180: 94a0 15bf eba2 773e 500a a0be 3213 05be
00000190: 2a97 2f3e 3379 bc39 fe81 febd 9a60 5c3e
000001a0: c9d0 ff3e b5db 03be 9746 fcbc 714b 9cbe
000001b0: be39 28bd 41a6 af3e de8f efbe 7085 3d3e
000001c0: 803c 0abe 6d61 8ebd b65c e9be b9e7 ac3e
000001d0: 0252 173e ee88 70be 314e ec3d 02f1 8abd
000001e0: e19f e2be ecf3 97be d033 743e c918 bfbd
000001f0: 75b8 3dbe fa67 d3bd 1499 01be a410 86be
00000200: a014 cc3d 61bb c2bd 3ef5 31be 12ff cdbe
00000210: 8a81 c13e 93b5 943d 1a40 9a3e 5293 17bf
00000220: 7c6c 9f3e f1f0 9b3d 044f c6be 7da3 64be
00000230: 5fe8 143e aa27 0a3d cc67 09bf cada bd3c
00000240: 23e6 80bd dee6 673e 0eb2 763e 3a24 15be
00000250: 18d0 05bf 7275 bbbd d98f 393e 4386 b83d
00000260: 571f 01be 97fd 013f f4b0 d13e 86c9 0f3e
00000270: 95c6 d4be 873b ad3d 6178 a53e 1569 a13e
00000280: 66d6 203e 303d 01bf c35d 2abe b809 a2bd
00000290: 5a12 96bd 06c1 b2bd d63a 523d 3264 b7bd
000002a0: ab4d 4b3c fc5a 30be de4e 26bf bf6b 343e
000002b0: 9458 993e 993f 72be a83e 063e b034 883e
000002c0: fa6c 593c 006b 22be 0377 683e 1aab b1be
000002d0: 1f11 bdbe ded8 3bbe 6d88 8f3e 06ea cd3d
000002e0: e536 01bf e1f2 3a3e 9479 c3be bd91 113e
000002f0: c1b6 56be 26ca cf3b 6cc8 02bd ce35 abbc
00000300: 1e95 99be a658 973d 50b2 a1be dfbe 84be
00000310: 9413 6b3e fbcd 31be dbec e93e 17f5 3bbe
00000320: c52c 67be 9094 8abe 650a ca3d 6197 423e
00000330: a368 003e 01df a43e e64f 033e bea6 6b3e
00000340: a011 8f3e 7b80 bb3d aea6 66be 59a1 98be
00000350: 13d8 c6bc f5a5 18be 6e96 ddbd 0845 d33e
00000360: 0fd8 85be 57a1 a1be 57a1 c6be e52c d1be
00000370: 9aad b4be 7b1f 363e b2f8 513e be67 63bd
00000380: 1f47 4a3e 9819 b9bd 9f84 d3be 5884 003c
00000390: caed 753e 8dea 0cbf 8aac 113e deea dfbe
000003a0: ab65 3cbd 0a34 a33e 92a2 23be 421f 59be
000003b0: 294f 903e fd99 d9bc c908 d9bd 2094 313e
000003c0: eb0a 3fbe f14b dc3d 68ef edbe 75be adbe
000003d0: 03f7 cabd 3d04 63be 8597 66bd 5e3c abbe
000003e0: d3b7 b13d 588d 5a3d d16b b8be 1514 35be
000003f0: 76d3 30be 5a5b cdbe e0bd 8e3e 5b1f 9cbe
0.17769682 -0.2132098 -0.09219877 -0.30901682 0.10313406 -0.035235986 0.14744173 -0.3229943
0.1259415 -0.29523507 -0.42203528 -0.2830638 -0.2809584 -0.07041502 0.38291356 0.046428617
0.00929284 0.061451323 -0.64101195 -0.33724874 0.10150647 -0.27083522 -0.23735192 0.19155362
-0.31771368 -0.06940366 0.3447913 -0.3521091 -0.23552528 -0.43942246 -0.10422341 -0.21215732
0.03344561 0.034247342 -0.23662318 0.25493643 -0.20293973 0.17395538 0.35472566 -0.3267526
-0.08987689 0.13558258 0.338137 -0.09510347 -0.28309962 0.03307329 0.020123353 -0.05802468
-0.43828335 0.09061838 -0.3526379 0.01296343 -0.439719 0.033324577 -0.25579312 -0.12429385
-0.19076952 0.034508914 0.17754367 0.28159347 0.1608185 -0.22648594 -0.23615158 0.5475518
0.29022074 0.23715444 0.15000418 -0.22615306 0.24761087 -0.21079093 0.053898588 -0.33598423
0.09990535 0.39855203 0.29063365 -0.33534718 -0.045901634 -0.31207618 -0.1447274 -0.057392832
0.29648742 -0.23819792 0.085194334 0.15718558 -0.06773096 -0.35118875 -0.26318583 -0.6647658
-0.076664224 0.08736993 -0.007651519 -0.085237585 0.15537731 -0.117362484 -0.14364888 -0.24085167
-0.5844815 0.24183242 -0.31257868 -0.12995604 0.17147508 0.00035948455 -0.12427138 0.21521226
0.49963978 -0.1287678 -0.030795379 -0.30526307 -0.041070692 0.3430653 -0.4678945 0.18507934
-0.13499641 -0.06952176 -0.45578545 0.3377054 0.14777377 -0.23489735 0.11538351 -0.0678425
-0.44262603 -0.29678285 0.2384789 -0.09330899 -0.18527396 -0.10322566 -0.12656051 -0.2618457
0.099648714 -0.09508396 -0.17378709 -0.40233666 0.37794143 0.07261195 0.3012703 -0.5920917
0.31137455 0.07614315 -0.3873216 -0.22327991 0.14541768 0.033729233 -0.53674006 0.023175616
-0.06293895 0.22646663 0.2409136 -0.145646 -0.5227065 -0.0915326 0.1812128 0.090099834
-0.12609611 0.5077757 0.40955317 0.14041719 -0.41557756 0.084586196 0.32318404 0.31525484
0.15706787 -0.5048399 -0.1663733 -0.0791201 -0.07327719 -0.087282225 0.05132564 -0.089546576
0.012408654 -0.17222208 -0.6496409 0.17619227 0.29950392 -0.23657073 0.13109839 0.26602697
0.013270611 -0.1586113 0.2270165 -0.34700853 -0.36927125 -0.18344447 0.28033772 0.10054402
-0.5047439 0.18256713 -0.38178694 0.14215751 -0.20968153 0.0063412366 -0.03192942 -0.02089968
-0.2999658 0.07389955 -0.31581354 -0.25926873 0.22956687 -0.17363732 0.4568852 -0.18355213
-0.22575672 -0.2706647 0.09865264 0.19003059 0.12539916 0.32201388 0.12823448 0.23012826
0.27943134 0.09155365 -0.22524521 -0.29810598 -0.024272954 -0.14907058 -0.10819708 0.41263604
-0.26141402 -0.31568405 -0.38794968 -0.40854564 -0.35288697 0.17785446 0.20505026 -0.055518858
0.19753693 -0.09038085 -0.4131212 0.007844053 0.2401649 -0.55045396 0.14225975 -0.43733877
-0.045995396 0.3187564 -0.15979984 -0.2120333 0.28185394 -0.026562685 -0.10597379 0.17341661
-0.18656509 0.10756672 -0.46471715 -0.3393437 -0.09910395 -0.22169586 -0.056296844 -0.33444494
0.0867764 0.053357452 -0.36019757 -0.17683442 -0.17268166 -0.40108758 0.27879238 -0.30492672

mlp.6.bias f4 [32]
00000000: 691a 72bd fc72 69bd a847 1c3b ca67 323d
00000010: 4bf3 8ebd 7c6b 553e c019 8abd 13a1 c1bd
00000020: 648a 7a3e 1b86 75bd 51fe fa3b a01c 5e3e
00000030: eedf 933d 1e42 793c 7ffd e7bc 5783 95bd
00000040: e62a 933e de82 f3bd 756f dabd 7d18 43be
00000050: 21e7 f33c 5fea 64be 6d1d e2bc 40cc 02bd
00000060: fd28 db3d 3f8d d93d 544c 3a3e 4fb9 96bd
00000070: 19fd fc3d 30fb debb e45e 87be 70e0 213e
-0.059107218 -0.056994423 0.0023846421 0.043556012 -0.06979998 0.20841783 -0.06743193 -0.094545506
0.24466854 -0.059942346 0.0076597114 0.21690607 0.072204456 0.0152135175 -0.028319119 -0.07300442
0.28743666 -0.11890195 -0.1066579 -0.1905231 0.029773297 -0.2235503 -0.027601922 -0.03193307
0.10701177 0.10622644 0.1819318 -0.073595636 0.12352962 -0.006804846 -0.26439583 0.15808272

mlp.8.weight f4 [14, 32]
00000000: 2c48 d5bd 0634 e5bd 7423 be3e de1b 133d
00000010: c040 203f 0bc6 fa3d bcdc d5be d106 82bc
00000020: a346 babe 7cf1 05be 7c9f 88ba 56c7 babe
00000030: 64a7 8f3e af3c 85bc 6286 103f cc12 b9be
00000040: b77f 943e d76c eebd d405 4fbd bf38 d43e
00000050: b938 9fbd 34ba 92be 2b24 1cbd e76a 37be
00000060: aed8 423e 1baa 13bf 819b 993e 27ff 77be
00000070: 0b87 b8be 72d3 503e 1b14 84bd 573b 94bc
00000080: c221 c83d 0b1a 1ebe 285f 4dbe c9cd 563e
00000090: c7c6 8a3e 26f5 7bbe 96f2 67be 7bf6 97bd
000000a0: dfba ffbe b272 0d3f 7847 613e f0d2 93be
000000b0: e1f8 483d e604 55be 28dd a2bd 2719 2dbe
000000c0: 6637 e2be 3595 7d3e fe69 a2be 71ab 8ebc
000000d0: 5d1b 85be dcc7 a53e 0ae3 99be 38d7 4c3e
000000e0: 8e57 00bc f6d0 b93e b932 06bf 7a76 0f3e
000000f0: dec9 19bf 89fe ae3e aff1 b63e 4698 b0be
00000100: f712 e5bd abb0 893e 3498 fbbd 4ae0 0a3f
00000110: 43bd 9fbe 86c0 08be 0cc4 ca3d 6fb7 d33e
00000120: 53a1 6f3d d086 003f 9d76 14be 9a7b d4be
00000130: 50bf e7be 608c c3be 2862 5e3d 1a7f a2bd
00000140: 11ca 4bbe fb21 b43a 039b 0f3e 6f86 7a3e
00000150: 9c94 b93e 6422 6d3e 81e3 5bbe 615d 1d3f
00000160: 9444 8ebd ed85 8dbe b7c3 7ebe 1d2b 093f
00000170: 5b2c 853d 2228 a0bc 97ff b6bb 2d3c b53d
00000180: b2f2 7c3e 4b32 fa3c 0e49 073e 30ce a03e
00000190: 337b 88be 8c57 78be 0963 8ebd 7b96 9fbe
000001a0: bf71 f3be 29d0 993e 7b8a 1bbe da2f d5be
000001b0: 43c6 af3e 1345 f93e 1087 d73d e6da fa3c
000001c0: 8d38 dd3e 2533 5f3d 4b55 e93e 8e01 763e
000001d0: 9377 9ebd edca 2bbe af44 bfbb d13d 44be
000001e0: 0bbc b23e 6036 c3bd e330 43bd b44a 723d
000001f0: 3a23 9b3c d390 a23c 5b96 343c e64d 633e
00000200: f46f 29bd cced 3a3e 59b4 7b3d 7972 553e
00000210: b97b 683e 7d90 9dbe e567 a1be 13c9 9cbe
00000220: b629 243e ae12 b33e 58d8 20bf bd2e 893e
00000230: b8f9 c0be 903e 84be 0e0e 5ebc cc8a 813d
00000240: f396 e63e 8792 5d3e 5cad b6be c11c 053d
00000250: 3828 b53d 5ab1 563e 54bb adbe 6a69 003d
00000260: 46a5 f9be cdd8 b0bd ec17 ab3d fb67 423e
00000270: c5bc ec3c 5b30 8c3e c7ee 3cbd 6908 053f
00000280: 2415 743c 90f2 c5be 889b aabe c5ad f5bd
00000290: b173 043f a74f c33e 270f d33d 48da c3be
000002a0: 7c00 95be 8bba bf3e e2ca 2dbd b4fe 43be
000002b0: f55f 523e e2a7 3e3d 9c13 413e d12f f03e
000002c0: c9ca 1c3e c69a 91bd d52f 4bbe f23e 893e
000002d0: 842c 5b3d 56e3 6f3e ba09 00be b433 95bd
000002e0: d447 a6be 890d 1bbd f51b 103e 9fc0 8dbd
000002f0: 1da8 64bc 0ca3 ebbe b93a bc3d d79d 65bc
00000300: 6b0a 67be 3a1a 323e 7875 38be d8d7 80be
00000310: 3fed 97be 564d 813e a85c 1abe 1345 99bd
00000320: 0a72 df39 2894 a03d 215a b4be 72e6 493e
00000330: ed6b 143e ae94 06be 158d 8f3c a60e d8be
00000340: ea9e ba3e 556c 75bd 196e 2ebd 87e9 0fbe
00000350: c01c a3bd dde6 9fbe 3e44 af3b 5914 773e
00000360: f407 8f3e a476 283d a776 86be f9e8 8ebd
00000370: 6b41 17be d29f 0fbe c46e 273e afc5 46be
00000380: 5078 3e3f 4f18 653e dba2 2cbe ff92 0e3e
00000390: 2557 a33e 4780 5e3e 1af3 c03d 9e33 1a3f
000003a0: 2ff1 5c3d 5cf8 9a3e 2a39 223d 8f1f 63bd
000003b0: 94e4 cb3d e2c6 a1bd 6ea5 1dbe 3ddb 803e
000003c0: c278 943c eb73 ea3e 37e2 513e 8b4a d0be
000003d0: e7f1 e83d 708f 263d a4e5 713e db3a 353d
000003e0: aaf0 c63d 5652 d8bd 631f 803e 390c f9bd
000003f0: 042d 75be 1818 9d3d c3eb 5e3e f4b0 923c
-0.10414156 -0.11191563 0.37136424 0.035915248 0.625988 0.12244805 -0.4176997 -0.015872391
-0.36382017 -0.130804 -0.0010423507 -0.36480206 0.28057396 -0.016264288 0.5645505 -0.36147153
0.2900369 -0.11641853 -0.050542668 0.41449544 -0.07774491 -0.28657687 -0.03812043 -0.17911874
0.19027969 -0.57681435 0.30001453 -0.24218427 -0.3604053 0.2039316 -0.06449147 -0.018094702
0.09772064 -0.15439622 -0.2005583 0.20976938 0.2710478 -0.24605235 -0.22651133 -0.07420059
-0.4994726 0.55253136 0.2199992 -0.2887187 0.049065474 -0.2080265 -0.079523385 -0.16904126
-0.4418289 0.24763949 -0.3172149 -0.017415734 -0.2599744 0.32379043 -0.3005603 0.20003974
-0.007833375 0.36292237 -0.52421147 0.14010039 -0.6007365 0.3417857 0.35731265 -0.34491175
-0.11185258 0.268926 -0.1228489 0.5424849 -0.31199083 -0.13354692 0.09900674 0.41350886
0.05850346 0.5020571 -0.14498372 -0.4150055 -0.45263147 -0.38193035 0.054292828 -0.07934399
-0.19901301 0.0013743037 0.14023976 0.24465345 0.36246192 0.2315765 -0.21473505 0.6147061
-0.06946674 -0.2764124 -0.24879347 0.5358141 0.06502601 -0.019550387 -0.005584668 0.08849368
0.24701956 0.03054156 0.13211462 0.3140731 -0.26656494 -0.24252146 -0.06952483 -0.31169495
-0.4754772 0.30041626 -0.15189545 -0.4163807 0.3433095 0.48685512 0.10523808 0.030621957
0.43207207 0.054492135 0.45572886 0.2402403 -0.07737651 -0.16776629 -0.005837045 -0.19164206
0.3490909 -0.095318556 -0.047654044 0.059153274 0.018937696 0.019844448 0.011022176 0.22197685
-0.041366532 0.18254775 0.06145129 0.20844449 0.22703446 -0.30774298 -0.31524578 -0.30622157
0.16031536 0.3497519 -0.62830114 0.2679347 -0.3769052 -0.2582898 -0.013553156 0.063253015
0.4503704 0.21637927 -0.35679138 0.032498125 0.08845562 0.20966092 -0.33931983 0.03135053
-0.48758906 -0.086351015 0.08354172 0.18984978 0.028898606 0.27380642 -0.046126153 0.5196596
0.014897618 -0.38661623 -0.33321786 -0.119960345 0.5173903 0.38146707 0.103056245 -0.38252473
-0.29101932 0.37447008 -0.042429812 -0.1914013 0.20544417 0.046546824 0.18855137 0.4691148
0.15311731 -0.07109599 -0.19842465 0.26805836 0.05350925 0.23426566 -0.1250371 -0.07285252
-0.32476676 -0.037854705 0.14073165 -0.06921505 -0.013956097 -0.46022832 0.09190888 -0.014014683
-0.22562568 0.17392817 -0.18013561 -0.25164676 -0.29673192 0.25254315 -0.15074408 -0.07483878
0.0004261884 0.078407586 -0.35225013 0.19716814 0.14494295 -0.13142654 0.017523328 -0.42198676
0.36449367 -0.059917767 -0.042585466 -0.14053927 -0.07964468 -0.31230822 0.0053487113 0.24128856
0.27935755 0.04112877 -0.262624 -0.0697803 -0.14771049 -0.1402581 0.16350847 -0.19411348
0.7440233 0.22372554 -0.16859 0.13923262 0.31902424 0.21728621 0.09421368 0.6023501
0.053940948 0.30267608 0.039605297 -0.05545002 0.09955707 -0.07899262 -0.15395138 0.25167266
0.018123988 0.45791563 0.2049645 -0.40681872 0.11374264 0.040664136 0.23622757 0.044245582
0.09713872 -0.10562579 0.25023946 -0.121605344 -0.23942953 0.07670611 0.21769623 0.017906643

mlp.8.bias f4 [14]
00000000: 4836 53bc 2e67 08be ebf5 9cbd 93af a6bd
00000010: 14fd 08bc 04a4 153d 8388 693e 759e 26be
00000020: ce51 aabe 8252 b3be 740f d3be f4e4 f5be
00000030: f711 ba3d 4400 9fbd
-0.01289136 -0.1332061 -0.07664093 -0.08138957 -0.00836112 0.03653337 0.22805981 -0.16271384
-0.33265537 -0.35023886 -0.41222727 -0.4802624 0.09085458 -0.077637225
