mujoco_playground/_src/manipulation/airbot_play/onnx/airbot_play_policy.onnx (onnx, 26220 bytes, 12 tensors)

obs_mean f4 [63]
00000000: bf6e 74bc e4d6 23bf 69c2 a23e ac68 c43f
00000010: eea6 34bf eec2 c8bf e197 de3c c970 de3c
00000020: 7c31 833e 0925 08bc 59a3 f33c f103 7b3f
00000030: 1abc 8b3a d299 6538 2d03 14ba 18ba 12bc
00000040: 345e 0bbe ca2e 58bd 75ea a0bc c8b1 0e3d
00000050: 0a0f fb39 ce1c 273c 2ef8 263c f093 4a3b
00000060: aaea 96bb 1146 b23b a1cf 1a3b b3d9 6e3b
00000070: 55b4 e4ba e38b 823e dda0 04bc 6819 273d
00000080: 1c67 793f 2318 773c 5009 c2bc 38ce eebc
00000090: 7936 003f 974e 55bf 74df 54ba 742a 763f
000000a0: 4106 bdba 52a7 a53a cd05 ad3a dafd 753f
000000b0: dd50 25ba 8cd1 4ab9 5507 38bc 8430 86bb
000000c0: 605e 0a3c cde7 0f3e 5b40 173d 9336 34ba
000000d0: 68cf ce3a 74df 543a 7e58 1d3d 4106 bd3a
000000e0: 6ec2 7a3a cf4a 8cbc e0ec 37bb 6af3 79ba
000000f0: 2ce8 d8bb 2af6 4837 6a93 f3ba
-0.014918982 -0.6399977 0.31788948 1.5344443 -0.70567214 -1.5684488 0.02717203 0.02715339
0.2562369 -0.008309611 0.029740976 0.9805289 0.0010660917 5.474111e-05 -0.0005646225 -0.008955501
-0.13610154 -0.052778997 -0.019643048 0.034837514 0.00047885656 0.010199739 0.010191007 0.0030910932
-0.004605611 0.0054404815 0.0023622292 0.0036445677 -0.0017448763 0.2549735 -0.008094993 0.040795714
0.9742296 0.015081438 -0.023686081 -0.029151067 0.5008312 -0.83323044 -0.00081204553 0.9615853
-0.001442142 0.0012638366 0.0013200581 0.9609047 -0.00063063 -0.00019342283 -0.011232217 -0.004095139
0.008445352 0.14053269 0.03692661 -0.0006874587 0.0015778365 0.00081204553 0.03841447 0.001442142
0.00095657154 -0.017125515 -0.0028064772 -0.0009534868 -0.006619474 1.19782435e-05 -0.0018583362

obs_std f4 [63]
00000000: 4731 223e c50d 643e 9c28 033e d91d 213e
00000010: 6156 903e 13b6 283e 3d8b 263c 65cf 263c
00000020: c26d 663d 4925 513d 3c47 fd3c b00f ff3d
00000030: 1983 ba3d 9bf1 b13d 9cde ad3d 181c 923e
00000040: a334 0b3f 91cf cc3e 2aa5 f83e ecc1 083f
00000050: 8eb3 1e3f 8bd0 ee3d 10de ee3d 557a 7a3d
00000060: 961a 823d 05c8 763d af31 9040 0aec 7340
00000070: db50 f43f 2598 683d 66d9 463d 1eb6 3d3d
00000080: 9027 be3d 5380 093e 8a36 013e e0ad ed3d
00000090: 849c 103e 0794 ea3d 0cc5 ee3d 66de 463e
000000a0: cda4 033e c4cd f73d ad05 073e 6a48 453e
000000b0: 1043 b13c f9cb 903c 0fbb 193d a3d5 9a3d
000000c0: a832 883d 45b0 2a3d 1c47 443e e31a e73d
000000d0: 10f6 fe3d 0cc5 ee3d 66de 463e cda4 033e
000000e0: 7ace 693d d4cc a03d 9824 613d 31b1 d53c
000000f0: d438 5e3d 2ef3 b03c 1522 5d3c
0.1583911 0.22270878 0.1280846 0.15734042 0.28190902 0.16475706 0.010165033 0.010181283
0.056257017 0.05106095 0.030917756 0.12454164 0.09107036 0.08688661 0.08489725 0.2853706
0.5437719 0.4000211 0.4856351 0.534209 0.6199273 0.1166087 0.11663449 0.06115182
0.06352727 0.060249347 4.506065 3.8112817 1.9087175 0.05678572 0.04854717 0.04631626
0.0928489 0.13427858 0.12618461 0.1160543 0.14122206 0.11454015 0.116586775 0.19420776
0.12855835 0.120997936 0.13185759 0.19265905 0.021638423 0.017675387 0.03753191 0.07560279
0.06650287 0.04167201 0.19167751 0.11284425 0.124492764 0.116586775 0.19420776 0.12855835
0.057081677 0.07851568 0.05496654 0.026085468 0.054253414 0.021600332 0.013496895

mlp.0.weight f4 [32, 63]
00000000: 1aaf db3d 3794 053e a3f3 4f3c f392 f33d
00000010: 1758 4abe 91aa 7e3d 60de b73d d528 de3d
00000020: e75c 233e 38d5 cebd 87e4 c23e 3082 673e
00000030: 3810 573e 5d9b 3dbd 9000 c7bd e6c6 053c
00000040: 9005 bbbc 5d6c c93c a8cb 073d cb1c 4abd
00000050: d14c 9d3d 8a1e 1fbc 8118 733e 28eb 11be
00000060: 6a27 40be b815 f03d 6725 18bd c314 2f3e
00000070: 56e8 f2bc bc41 d83d 131a 0b3e cb4d a33e
00000080: 2c74 383f 5fc1 5abe 01c0 bdbd a996 26bd
00000090: 9dbb 1f3e 68ab 48be 684d 8ebe 2cf2 7f3e
000000a0: 45aa b9bd d610 83be dd57 b23e a4a7 97be
000000b0: d1bb 86be ae4a c0bd 07c5 18be 6cbb 98bd
000000c0: 5502 6fbe 7cf4 36be f0c2 ac3c 9f97 abbe
000000d0: a9de e1bd 4650 8c3e 78d9 b6be e5c2 663e
000000e0: f99f c5bd aed8 0f3f 37ad 2f3f b391 203e
000000f0: a5bb f93e ca21 0e3e 8022 8aba 54c4 473e
00000100: 24a7 103e 0012 3abe 6bfa 25bd a910 ed3d
00000110: f718 eebd 932f 1e3d a3e0 703e c92b b33c
00000120: 8da7 cebd 3227 0abe dca4 0dbe f808 6abe
00000130: 882b c83c ac75 d7be e3e3 afba 58a2 13bd
00000140: 4dbf e9bc 7f82 24bd d8b0 a63d a483 33bd
00000150: f881 b5bc 72c1 16bd c761 b83d 144b be3e
00000160: 1d21 2e3c c01b b23c 23f3 b63e b844 e23d
00000170: c6e4 343d 57a7 703c fd85 bb3e 1e4d dd3e
00000180: ce47 d63e 52cb 63bd d580 1abe b119 d83e
00000190: 4980 94bd 8889 f6bd 7156 5dbd f618 1cbe
000001a0: 7b1c b23d 8d9a a8bd 7ba3 34bd 3bfe b83e
000001b0: ca0c 043e e89a bbbe 989d ce3d 0352 883e
000001c0: fabf 5e3e 8ce0 dc3e ecf2 afbb 0b3c 14be
000001d0: 30e8 bf3d aeb0 a23d 6eb2 0c3e ab62 943d
000001e0: f324 803e f9d6 763d 8e83 c1be 1c61 7c3d
000001f0: 6481 edbc ce3d a53e 9298 89be 95a1 ffbc
00000200: 8898 78be 23b8 86bd 95ec ba3d 68a3 dabc
00000210: 3498 293c 2c68 373d ce7f 103e 5048 e8bd
00000220: be92 b9be 16b5 643d 0b7a 24be 80ef 81bd
00000230: e46f 333e b42d 963e 861f ecbd 05fe 563e
00000240: 4383 363e ccbf 8b3d c69e fcbd ac9f 4a3e
00000250: 6988 703e 65f5 cfbd 9168 2b3e c32a ed3c
00000260: 1234 3eba 61e7 9fbd a0b6 ccbd 5077 273e
00000270: e824 25be 6bc9 cabe a669 d73e 9ba3 5abe
00000280: 0be6 90be 4e39 28bd 0bcb c2bc e0f5 70bd
00000290: e9fe 413e 601b 4abe 7d48 d63d f643 0a3d
000002a0: 92e1 41bc ae7c 30be 4809 febd da89 093d
000002b0: 83c0 b33d f8da 053f 9bb9 813d fb95 74bc
000002c0: 90e5 953e 5510 54be 94a7 25be 572f 24be
000002d0: c171 c63d 226f 71bd 4039 e0bd 9bd9 89be
000002e0: a52b e0bd a98f 1c3e e407 5dbc 5cf6 a63d
000002f0: 9a66 123e 5a1a cb3e 2ac4 14be 67d0 2bbe
00000300: 3872 813e 8189 b2bd bb67 363e dbdb e53d
00000310: 32fc a6bd 4b97 a93e 60ec b1be 1cc0 0abf
00000320: f1b0 e43c b26c 4c3d e314 1e3e 60a7 603d
00000330: d721 6c3e ca32 0a3e 829d 1f3c 012d b2bd
00000340: e561 aa3d 38a2 d9bd 9530 a03d 2fd7 42bc
00000350: 979a bcbe a8b5 193e adb5 6a3d 1866 27bd
00000360: 402b 98bc bf36 313e f662 473d cf78 0a3e
00000370: 4e74 0fbf 4592 823e 0c70 b83d fb40 bfbd
00000380: 054c 0e3c 8ac3 013b 5d63 86be eff2 1abe
00000390: 5f56 e4bd 0d3b eebc 20da 043d fded 83bd
000003a0: 2934 8bbd fef9 82bc 6269 de3d 6b1a b73e
000003b0: 6737 51bf 23bc fcbe c049 093e 0fe3 c03c
000003c0: 541a c3bc c24c 623d dec3 90bd 878d 8e3d
000003d0: 3974 29bd 4111 1dbd 6d16 a5b9 0304 34be
000003e0: dada 433e 78ad dabe 6573 cd3d 1a01 573e
000003f0: 211c c7bc fc6d e6bd 5f42 87be 528d acbe
0.10726757 0.1304482 0.012692365 0.11893263 -0.19760166 0.062174384 0.089779615 0.10847632
0.15953408 -0.10099262 0.38064978 0.22608256 0.2100228 -0.046290744 -0.09716904 0.008165097
-0.0228298 0.024587804 0.033153206 -0.049343865 0.07680667 -0.009711871 0.23739816 -0.14249861
-0.18765035 0.117228925 -0.037145045 0.17097764 -0.029651802 0.10559413 0.13584165 0.3189529
0.72052264 -0.21362828 -0.092651375 -0.040671024 0.15598913 -0.19596636 -0.2779343 0.24994725
-0.090656795 -0.25598782 0.3483266 -0.29620087 -0.26315168 -0.09389244 -0.1491891 -0.07457623
-0.23340733 -0.17866701 0.021089047 -0.33514115 -0.11028797 0.27404994 -0.3571279 0.22535284
-0.09649653 0.5619 0.6862368 0.1568058 0.48775974 0.13880077 -0.0010538846 0.19508487
0.14126259 -0.18170929 -0.04052202 0.11575443 -0.116258554 0.03861959 0.23523192 0.021871464
-0.100905515 -0.13491514 -0.1383242 -0.22854984 0.02443482 -0.42081964 -0.0013419356 -0.036043495
-0.028533602 -0.040163513 0.08139199 -0.043826714 -0.0221567 -0.036805578 0.090030245 0.37166655
0.010628012 0.021741748 0.35732374 0.11048263 0.044163488 0.014688334 0.36625662 0.43222898
0.41851658 -0.055613823 -0.15088208 0.422071 -0.07251031 -0.12037951 -0.054037515 -0.15243897
0.086968385 -0.08232603 -0.04410122 0.36131462 0.12895504 -0.36641622 0.10088652 0.2662507
0.21752921 0.43140066 -0.0053695347 -0.1447603 0.09370458 0.07943855 0.1373994 0.07245382
0.2502819 0.060263608 -0.3779568 0.06161605 -0.028992362 0.32273716 -0.26874214 -0.031204978
-0.24276936 -0.0657809 0.09127156 -0.026689246 0.010351229 0.04477708 0.14111254 -0.113419175
-0.36244768 0.05583676 -0.1606218 -0.06344509 0.17523152 0.29331744 -0.1152945 0.20995338
0.1782351 0.06823692 -0.12334971 0.19787472 0.23489536 -0.10154227 0.16739108 0.028951054
-0.0007255684 -0.07807804 -0.099957705 0.16354108 -0.1612736 -0.39606795 0.4207279 -0.21351473
-0.2830051 -0.041070275 -0.023778459 -0.058828235 0.18944897 -0.19737005 0.10463045 0.03375622
-0.011833565 -0.17235062 -0.12404114 0.03357873 0.08776953 0.52287245 0.063342296 -0.014928336
0.29276705 -0.20709355 -0.16177207 -0.16033684 0.096896656 -0.058943875 -0.109484196 -0.26923832
-0.109458245 0.15289177 -0.013490651 0.08152458 0.14296952 0.39668542 -0.14527956 -0.16778718
0.25282454 -0.08717633 0.17813008 0.11223575 -0.08153571 0.3312324 -0.34750652 -0.54199386
0.027916403 0.049908347 0.15437655 0.05484712 0.23059784 0.13495937 0.009742143 -0.0869999
0.08319453 -0.10626644 0.07821766 -0.011892124 -0.36836693 0.15010703 0.057302166 -0.04086885
-0.01857531 0.1730604 0.04867836 0.13522647 -0.5603684 0.2550222 0.09005746 -0.09338566
0.008685117 0.0019800388 -0.26247683 -0.15131734 -0.111492865 -0.029080892 0.032434583 -0.06441877
-0.06797058 -0.015988346 0.10859944 0.35762343 -0.8172516 -0.49362287 0.1340704 0.02354577
-0.023816265 0.055248983 -0.07068609 0.06960588 -0.041370604 -0.038346533 -0.0003148796 -0.17579655
0.19126454 -0.4271047 0.100317754 0.20996514 -0.024305405 -0.112514466 -0.26417825 -0.3370157

mlp.0.bias f4 [32]
00000000: da96 1a3d 135c 673d 79ae 1fbe fb94 eabe
00000010: 1096 d63e 57dc a1bd b0d3 b8be 784d 9e3d
00000020: e625 4d3e f3a4 053e 8e4c 203e e220 293e
00000030: a0d7 f0bd f4e1 4f3e cc7a 90bd 0f76 b23e
00000040: 726d e5be 6e86 c3be a412 71be 65c6 d9bd
00000050: d45f bdbb dcdd 833e 756d ba3e 42d4 a43d
00000060: 5661 3c3d cfbe 623d 4ef2 1e3e 794f c7bc
00000070: d97e e23e de58 15be 0562 d4bd ddd1 c2bd
0.03774152 0.056484293 -0.155939 -0.45816788 0.41911364 -0.079033546 -0.36099005 0.0772962
0.20033988 0.13051204 0.15654203 0.1651645 -0.11759877 0.20301038 -0.07054672 0.34855697
-0.44810063 -0.381885 -0.23542267 -0.10633544 -0.005779246 0.25755203 0.36411634 0.080482975
0.045991264 0.05535775 0.1552212 -0.024329888 0.44237402 -0.14584681 -0.10370258 -0.095126845

mlp.2.weight f4 [32, 32]
00000000: 472e 293e 2c75 60be a4bf 07be 3b6c 523e
00000010: 6f4e 6b3e 6eb8 883d 3b5c e63d 57ab 913e
00000020: 16ef 30be ddd7 68be 5bf8 f73c db04 803e
00000030: a199 afbe 65b7 933d c420 e63e 283f 3c3d
00000040: 55ff 763e 90af f03d d0c3 29bd 338f 7c3e
00000050: 3cd2 bebe ffce 973d f7dc 5abd 9dae 58bd
00000060: f510 15bf e20c c33e 9b41 13bf 9861 30be
00000070: 55dd 22bf f647 bc3e 0306 f4bd 612f 483e
00000080: 9435 90bd 203e 923c 4373 b23d 7b81 9dbd
00000090: 1b59 853e d1c1 24be 710c 463e 66a8 f93b
000000a0: 0165 ed3d 938e 1bbf b2bb c03d 340a 1bbe
000000b0: ad39 68be 9f93 a93e e4f0 84be c972 bdbe
000000c0: 3314 cf3e d993 e33d f9b3 9ebe e0bd d53e
000000d0: aac2 82bd 63a1 9e3e 804a 59bd 61d3 cdbc
000000e0: 0f16 0d3d feaf 093e a249 f63e e45d d6bb
000000f0: e4f5 eb3d 0da5 6b3c e81f debd 1381 f13c
00000100: 20a6 edbc 028c 1c3c d9c7 efbc fae5 b93d
00000110: ff6f 8e3e 81a7 84bd c5f3 98bd f91c 66be
00000120: d56f acbe 7084 6bbe e3f3 713e 45fa b9bc
00000130: 2966 5ebe f6a1 87bc a7be f1be 4cdb 03bb
00000140: cf95 3ebd 63f7 503c 515e 46be 8c20 28be
00000150: 3129 0f3e 13aa 243e 5336 9b3d b758 c4be
00000160: 5b4a 88be b374 a03e 26eb 54be c76f 023d
00000170: 3e43 333e 6c34 22be cadb 21be e673 973e
00000180: 7bad e43e c8f3 523e 58c0 ecbe ed1a 413e
00000190: bdaa e83d d0ba 963e 1420 39bd 276f 4c3e
000001a0: 246e 993e 55fb a5bc 8ed5 1139 19d4 82be
000001b0: f5ca 71bd 58f9 27bd 5009 9abd f461 2ebe
000001c0: 7d59 ea3c 9be7 7a3e da9c 473c 038b a23d
000001d0: 8d8e c73d 0543 d33e ffe6 013e 50f8 253e
000001e0: a982 943e dbcf b5be 3e91 d43d ac1e 023e
000001f0: 74ed c0be 28d5 d03d e37a 0bbe 0bf5 333d
00000200: f3fe 96be 4c44 be3d fc0f 5abe f99e ed3d
00000210: ef25 8b3e f675 b0bc 5c94 853c af12 b23e
00000220: 590b ea3c 399c 843e ad1e b6bd 9aa1 0e3e
00000230: d595 cbbd f4ba 713e c534 e73e 7be7 88be
00000240: daa9 493c 563d fdbd 8b86 33be 51c7 e7be
00000250: 8807 33bd 6622 46be bd9a 81be f873 aa3d
00000260: 109f 613e 8ad0 803e d854 9bbe 6fc2 2c3d
00000270: 5454 7fbe 1734 033e 1be3 423e cdeb 90be
00000280: 3a35 6e3d 881a a7bd ea09 11bf 69c6 06be
00000290: 5fef af3e 1c0f d9be 85de 18bf ac78 0f3e
000002a0: 154d 02bd 5758 ccbd 0d0f 823d b9d8 88bd
000002b0: bdec 8a3e 4245 0f3e 16aa b1bc aff3 edbe
000002c0: e42d ffbd da2f 75be c86d 66be 9f1d a03e
000002d0: 844b a13d 6994 1b3e 4e41 6a3e 935a e3bd
000002e0: df32 d2be 5402 86be 1978 4f3d f6c8 18be
000002f0: acc7 473e 3e49 f7bc 7d7c 663e fa44 97bd
00000300: 5d7c be3d 41ae 603e a18e 003e 57db e9bd
00000310: b9d3 6bbe ae14 8fbe 06e4 df3e badb 533d
00000320: 5b7d 2d3e fee6 ce3d 8bb5 5e3e 8403 4dbe
00000330: 008e 14be 70eb 323e 99be f53d c610 22be
00000340: 61f8 37be e4fe 093e 8a55 a3bc dc2b 94bd
00000350: d2b9 813e 742b 69be 1901 cebe 0b06 783e
00000360: c5a4 37be d2ac 80bf 5a78 4f3e 9ad8 2fbb
00000370: aefc 87be 7b89 76be 493b 22be 7d52 a93d
00000380: ffa3 b1be a338 d0bd f8de 12bd e974 e63d
00000390: fdcd b23e d060 9dbb 808d 56be 4226 5fbf
000003a0: 0840 9a3d cde4 68be 0fa2 99bc 17b2 11be
000003b0: 9568 ecbe 6174 72be 2325 6dbe c81a 583e
000003c0: 6160 083f 4bd2 4b3e 6563 7ebe fbeb 833d
000003d0: 651a 093e 8c0c 413d c8d2 7fbe 244a 6b3e
000003e0: 2013 3abe 8b91 21bf 6f19 1c3d 8ad9 22be
000003f0: 19a1 153d b8c8 ad3e 4bb5 b83e 0307 37bf
0.1652156 -0.21919698 -0.13256699 0.20549099 0.22979139 0.06675802 0.1124806 0.28451034
-0.17278704 -0.22738595 0.030269792 0.25003704 -0.34296897 0.07212714 0.44946873 0.045958668
0.24120839 0.11752236 -0.041446507 0.24664001 -0.3726977 0.07412528 -0.053433385 -0.0529009
-0.58229 0.38095766 -0.5752198 -0.17224729 -0.63618976 0.36773652 -0.11915209 0.19549324
-0.07041469 0.01785189 0.08713391 -0.07690712 0.26044545 -0.1608956 0.19340684 0.0076189516
0.115915306 -0.60764426 0.094108 -0.15140611 -0.22678252 0.33120438 -0.25965035 -0.37001637
0.40445098 0.11112184 -0.30996683 0.41746426 -0.063847855 0.30982503 -0.053049564 -0.025125207
0.034444865 0.13446042 0.48103052 -0.0065419544 0.11521509 0.014382613 -0.108459294 0.029480493
-0.029009879 0.009554865 -0.0292701 0.09077068 0.2781982 -0.06477261 -0.0746837 -0.2247199
-0.3367907 -0.2299974 0.23628192 -0.022702346 -0.21718659 -0.016556721 -0.4721577 -0.0020119725
-0.046529587 0.012754294 -0.19371916 -0.16418666 0.13980557 0.16080503 0.07578721 -0.38348934
-0.2661923 0.31339034 -0.20792827 0.03184488 0.1750612 -0.1584031 -0.15806499 0.2958061
0.44663605 0.20600808 -0.46240497 0.18857928 0.11360691 0.29439402 -0.045196608 0.19964276
0.29966843 -0.020261446 0.00013907833 -0.25552443 -0.059031446 -0.041009277 -0.075213075 -0.17029554
0.028607124 0.24502413 0.012183392 0.07936671 0.09743986 0.4126207 0.12685774 0.16208005
0.29005936 -0.35510144 0.10379265 0.12707013 -0.37681162 0.10196906 -0.13621096 0.043934863
-0.29491386 0.0929037 -0.2129516 0.11602587 0.2717738 -0.021540623 0.016306095 0.3477988
0.028569864 0.25900438 -0.0889257 0.13928834 -0.099406876 0.23606473 0.45157447 -0.26739106
0.012308562 -0.123652145 -0.17531793 -0.45269254 -0.043708354 -0.1934906 -0.25313368 0.083229005
0.22033334 0.25159103 -0.30338168 0.042177614 -0.24934512 0.1281284 0.19031946 -0.28304902
0.05815623 -0.08159357 -0.5665575 -0.13161625 0.34362313 -0.4239434 -0.5971454 0.14010876
-0.031811792 -0.09977787 0.06350527 -0.066819616 0.27133742 0.13991264 -0.021687549 -0.46474978
-0.12459925 -0.23944035 -0.22502816 0.312726 0.078757316 0.15193333 0.22876474 -0.1110126
-0.41054437 -0.2617365 0.050651643 -0.1492041 0.19509763 -0.030186292 0.22508426 -0.07386203
0.09301064 0.21941473 0.12554409 -0.11418789 -0.23029985 -0.27945465 0.43728656 0.05172322
0.1694235 0.10102652 0.2174894 -0.20020872 -0.14507294 0.17472625 0.11999244 -0.15826711
-0.17965843 0.1347614 -0.01993825 -0.07234928 0.25337082 -0.22770482 -0.40235212 0.24221055
-0.17933948 -1.005274 0.20260754 -0.0026831985 -0.26559967 -0.24075882 -0.15842928 0.082676865
-0.34695432 -0.101670526 -0.03585717 0.112527676 0.34922782 -0.0048028007 -0.20952415 -0.8716775
0.07531744 -0.2274353 -0.018754033 -0.14228092 -0.4617354 -0.23677208 -0.23158698 0.21103966
0.5327206 0.19904439 -0.24842604 0.06441494 0.13388975 0.047131106 -0.2498275 0.22977501
-0.18171358 -0.63112706 0.038110193 -0.15903297 0.036530588 0.339422 0.36075816 -0.71495074

mlp.2.bias f4 [32]
00000000: 9f7f 61be 1abd eabc 8e8b 4f3e e58b 15be
00000010: fe20 f9bb 77fe 533e 6b03 ae3d 4dce 5bbd
00000020: 1a8c a53d b731 c4bd 4f33 32bd 6407 5b3e
00000030: f3f8 90be 47b2 1c3d 9fc1 b13d a139 3d3d
00000040: 73e6 95bd d9dd 73be 5878 063e c0db 85bd
00000050: b564 833c 1e6f 393e b3ef 48bd ad14 953e
00000060: 2962 483d cb3b 87be 7b0a a0bd 992a 7e3d
00000070: 833f 883e 39cb 003e 1217 4cbe cdac 583e
-0.2202134 -0.028654624 0.2026808 -0.14604147 -0.00760281 0.2070254 0.08496746 -0.05366354
0.08083363 -0.09579795 -0.043505963 0.21389538 -0.28314933 0.038255956 0.086795084 0.046197537
-0.07319345 -0.23815097 0.13131845 -0.065360546 0.016039232 0.18108794 -0.04905672 0.29117337
0.048921738 -0.26412806 -0.07814499 0.062052343 0.26610956 0.12577523 -0.19930676 0.21159668

mlp.4.weight f4 [32, 32]
00000000: 4b42 9dbe 96a5 5abd a8a0 1ebc 0ec7 d4be
00000010: 7e03 38bc 4509 b6bb b9e8 9f3e 0fbf 25bd
00000020: 75dc 53be dfac f13d d1dc 93be c82a a1bd
00000030: 7457 8cbd 2933 b23d fc8e 043e 44d3 d23c
00000040: ac21 ac3d 5f81 6ebe 6d95 b6bd af54 83be
00000050: 339e 923e 320c 97bc 3b05 f1be a507 c53e
00000060: 9f12 943d 9cbd e0bd c448 a5be 0bbf a03d
00000070: f7d2 f2be d58b d73e 6ed8 25be d448 37bd
00000080: 6077 0dbf 97a4 18be 9a6d 093d 7d25 63bc
00000090: b62b 7cbd ce23 2a3e b908 90be 5314 fe3c
000000a0: 3fe1 e7bd f116 0c3e 8eba f63d 1328 513e
000000b0: e6ce 693e 4215 b5be 3924 92bb 1f56 3d3e
000000c0: 598a 3a3e e936 79be d613 5a3e a25b 313e
000000d0: 3e24 bd3c 7a60 813e 4984 523e 96b9 9e3d
000000e0: da7a 173e 486e 48be f573 b1bc b61e a3be
000000f0: 99e0 97be 96de a4bd 872a 10be ec37 3dbe
00000100: 3f66 c73e 8b54 afbe 11aa 363d 9630 7a3e
00000110: 615b 213e 5884 4f3e 9741 c9be 51ef 1abe
00000120: 759c 403c 1b40 ddbd 353f 093e 866c 623e
00000130: e16e 45bd b625 213e efad 0cbe 11cd aabe
00000140: 6fce 473e fabb c23b e586 07be 55b3 8e3e
00000150: 593f 933e 34ad a93d 4790 12bf 98b6 0dbd
00000160: 122c 89bc 65d2 993e 4c64 643d 88c0 96be
00000170: 7e2d e5bd dc04 833e 8d76 acbd af25 073c
00000180: 974d 36be 751d 4cbe b960 823e f0be 50be
00000190: 4009 a23d 3c92 bc3d 2bc8 b43d d86a 423d
000001a0: 032c 4b3e bf2c 463e b57e 60be d55f 553e
000001b0: 83d0 523e 5f14 c73e 230c 2dbd f442 7dbd
000001c0: 3af1 6fbd 67d4 85bd d879 cc3d 38fd 24bb
000001d0: 0b6a 1abe 5fed f0bb 3407 15bf 4bc1 833e
000001e0: 8811 96be f4bb b9be f211 1e3e 2745 47bf
000001f0: afab 823e 5a48 dcbe bf4c 0dbf 624c 263e
00000200: edbf 66be a170 08be df77 42bf a7e3 893e
00000210: c2da 2bbd 1647 afbd dea6 153e 495b 73be
00000220: c80f 513e edd2 c3bc d11c 24be 1360 cfbe
00000230: b80b 293e 0172 003e 842b 76be 45fd 65bd
00000240: b236 18be f18e dfbd f4b0 ff3e 310e d6be
00000250: 52a7 cbbd f451 213e 62c9 a4be fa89 ad3d
00000260: defd 32be 3fee b8be b5ed 25be 4f93 8f3e
00000270: a43f 10be c04e 853e d4c4 e0bd e639 81be
00000280: f3ae 483e e7dd 96be 84e9 21bf 4405 923c
00000290: e853 cc3e e580 83be 32de d5be 839e c33e
000002a0: 8719 fbbe c7ef 403c 1e55 51be bde8 f13c
000002b0: 4b98 24bf 93ae 98bd b52f 3d3e f434 b03d
000002c0: f4f7 06be 92a2 74be 2525 23bf 4560 63be
000002d0: 7fe9 29bd 3be1 ef3c 70df 9bbe f671 95bd
000002e0: c0d0 19be 0088 96bd e59f b8be fd23 39bc
000002f0: 4c5c a6ba 5018 25be 9ad2 11bd beda 68bd
00000300: bcc8 8fbd 56ad 58be 8552 bdbd 1e89 823d
00000310: fde1 a8bd f810 a03d 34b5 583d cca4 e6be
00000320: 663f 453e e714 8e3d 514e 90bb 7743 663e
00000330: 2054 c3be bff3 423c 268c eabe 37c1 bd3d
00000340: 01d0 88be d2eb bbbc 4626 443d 202a 02be
00000350: ed0d c1be 8b30 23bd 1d7e 1dbf b815 073d
00000360: 0179 473d 97e2 a63d 9782 7c3e ce24 b7be
00000370: ad55 cf3d 02d5 493e b56f 86be 3661 2dbe
00000380: 2bef 933e df4e 173c 558c b1bd 6337 02bf
00000390: 2f1d 17be 70e4 3e3d 6398 40be 00e1 09be
000003a0: 5cea 5bbe b21f 3f3e d668 7fbd e322 2b3d
000003b0: 53c0 e1be 198d ebbd 8335 1d3e 932a 7cbe
000003c0: 1c1c a93e 44c9 753e 33ec 46be 23c2 9d3d
000003d0: 11b9 bfbd 7537 a1be d3d8 f33d 7d2a 2bbf
000003e0: 186d 7c3e 50f0 1fbe 9d93 d23e 8b85 c43e
000003f0: 45d3 fe3c 2e1b 9abe 8408 bcbd 5f9d 1abd
-0.3071464 -0.05338057 -0.009681858 -0.41558117 -0.011231301 -0.0055553042 0.3123224 -0.04046541
-0.20689566 0.11800551 -0.28879407 -0.07869488 -0.06852618 0.08701164 0.12945169 0.025735505
0.0840486 -0.23291539 -0.089152195 -0.25650546 0.2863632 -0.018438432 -0.47074303 0.38482395
0.07230114 -0.10973665 -0.32282078 0.078489386 -0.47426578 0.4209887 -0.16195843 -0.04474719
-0.55260277 -0.14906536 0.03355179 -0.013863918 -0.061565123 0.16615221 -0.28131655 0.03101555
-0.11322259 0.13680626 0.12047301 0.20425443 0.22832832 -0.3536778 -0.0044598845 0.18489884
0.18216838 -0.24337353 0.2129663 0.17320111 0.02308857 0.25268918 0.20558275 0.077502415
0.14792958 -0.19573319 -0.021661738 -0.31859368 -0.29663542 -0.080502674 -0.14078723 -0.18478364
0.38945195 -0.3424419 0.04459578 0.24432597 0.15757515 0.20265329 -0.39307854 -0.15130354
0.011756052 -0.10803243 0.13403018 0.22111711 -0.048201445 0.15737042 -0.13738225 -0.33359578
0.19512342 0.0059428187 -0.13235052 0.27871194 0.28759268 0.08284989 -0.572514 -0.034597963
-0.016744647 0.3004333 0.055759713 -0.29443765 -0.111903176 0.25589645 -0.08421049 0.008248731
-0.17803036 -0.19933112 0.2546442 -0.20385337 0.079119205 0.092075795 0.088272415 0.047465175
0.19841008 0.19353007 -0.21923335 0.20837338 0.20587353 0.3888273 -0.042247903 -0.06183143
-0.05857966 -0.06534653 0.09984177 -0.0025175344 -0.15079515 -0.0073525156 -0.58214116 0.25733408
-0.2931025 -0.3627621 0.15436533 -0.77839893 0.2552161 -0.4302395 -0.5519523 0.16240075
-0.22534151 -0.13324215 -0.7596416 0.26931497 -0.04195667 -0.085584804 0.14614436 -0.23765291
0.20416176 -0.023904288 -0.16026618 -0.40502986 0.16508377 0.12543489 -0.24040037 -0.05614974
-0.14864615 -0.10915936 0.49939692 -0.41807702 -0.09944023 0.15753919 -0.32184893 0.084735826
-0.17479655 -0.36119267 -0.1620396 0.28042075 -0.14086777 0.26036644 -0.10975042 -0.25239486
0.19597988 -0.29466173 -0.6324694 0.017824776 0.39907765 -0.25684276 -0.41771084 0.38206872
-0.49042913 0.011775917 -0.20442626 0.029529924 -0.6429488 -0.074551724 0.1847523 0.0860385
-0.13180524 -0.2389014 -0.63728553 -0.22204693 -0.041482445 0.029282203 -0.30443907 -0.07297127
-0.15021038 -0.07350159 -0.3605949 -0.011300084 -0.0012692302 -0.16122556 -0.035601236 -0.056849234
-0.07020709 -0.21159872 -0.09244255 0.06373809 -0.08246229 0.078157365 0.052907184 -0.45047605
0.19262466 0.069375806 -0.0044038673 0.22486673 -0.3815012 0.011898934 -0.4581005 0.092653684
-0.26721194 -0.022939596 0.047888063 -0.12711382 -0.37705937 -0.039841216 -0.6152056 0.032979697
0.048699383 0.08148687 0.24659191 -0.35770267 0.10123763 0.19710162 -0.262571 -0.16931614
0.28893408 0.009235113 -0.08669344 -0.50865763 -0.14757226 0.046604574 -0.18808131 -0.13464737
-0.2147612 0.18664435 -0.06235584 0.041781317 -0.44092044 -0.115015216 0.15352444 -0.24625616
0.33029258 0.24002558 -0.1942604 0.07703044 -0.093614705 -0.31487623 0.1190659 -0.66861707
0.24650991 -0.15619016 0.41128245 0.38383135 0.0311066 -0.3009886 -0.09181312 -0.037747737

mlp.4.bias f4 [32]
00000000: 5212 1e3e 0bb3 aa3d 38ee c8bb 907a 8a3e
00000010: 3821 b13d 72a8 363d c2af e33d 3c46 3c3d
00000020: cf71 cc3d 03f7 8fbb d3e9 4ebe ccd2 933d
00000030: 6aa1 063c eb16 7bbd 44eb 173e f2a3 9fbd
00000040: fda3 253e 6a80 cfbb 02de 18bd f573 d13d
00000050: 3358 d53d 2c58 d3bc 61ae 00bd d4d1 853d
00000060: cdc5 5f3d acf5 a73d 5c86 8b3d 1e26 96bd
00000070: 21d1 9fbe 1272 d9bd c53e 773e 2300 61be
0.15436676 0.08334931 -0.0061319135 0.27046633 0.08648914 0.044594236 0.111175075 0.04596542
0.09982645 -0.0043934598 -0.20206384 0.07217941 0.008217195 -0.061301153 0.1483584 -0.07794942
0.16175838 -0.006332447 -0.0373211 0.10227195 0.10417213 -0.02579888 -0.0314163 0.06534162
0.054631997 0.08201155 0.068127364 -0.07331489 -0.3121424 -0.1061746 0.24145038 -0.21972708

mlp.6.weight f4 [32, 32]
00000000: 2de0 0cbd 1275 763e 5527 f1bd 73b0 9abe
00000010: 5b54 bdbe 7d0a 893e 9878 90bb 0356 05be
00000020: ce69 f03e 00f4 6dbe 0a3c 04bf 76a9 e7be
00000030: bf4c bb3d 4c73 0b3d 983a bd3e 6a11 6abe
00000040: 3a6a ed3e 19ff d83d 7e06 3ebf 5dd4 2dbe
00000050: 8c67 043c 1d6d 83bb 55ff c1bc 4f23 cb3e
00000060: f138 a6be bd30 8cbe f88b 973e 2f8f 9abe
00000070: 949b 09bf 5d03 5439 f9ca 05be d151 efbe
00000080: f86a b33d 1021 0abe 3981 b93d 5a10 2dbc
00000090: 623d d3bd 4d58 c0bd 5257 a43e b412 8cbe
000000a0: ab8f 17be ae1d 9abd bdbf 3d3d d8f0 373d
000000b0: b629 6cbd 5f8c 043e 426e b6bd 880f f5bc
000000c0: 6930 fabe 0400 873d ef08 64be d99a 0a3d
000000d0: 3c10 0cbf 83c3 dfbc 726c a4be 55ee b3be
000000e0: 5e25 84bd d82e 2a3e 6bd4 cd3e 3e37 343e
000000f0: ee66 2f3e 186d 06be ac17 62be 0f38 ab3e
00000100: 3c98 3f3e 9f88 633e 764b 473e 9def b1be
00000110: 939b 4d3d d043 22be d0ce 5b3e 28fd 1cbf
00000120: af86 d03c 954f b43e 0117 2e3e ecd8 58be
00000130: 8625 73be 6eb8 35be 458a 51be 7f67 163e
00000140: fadd 7c3e 2633 9cbe 5f58 bcbd 0c55 073e
00000150: 5a23 04be bb48 0a3e 6973 8f3c e578 0abe
00000160: 9009 0a3e f6ee 5dbe e786 003c 00c7 0c3e
00000170: 1001 2f3d 4253 12be 91c2 0e3e 45e7 93be
00000180: 7385 febe 9923 f83c 2283 51bd 5e99 a4be
00000190: 976b 8fbe 19b2 bd3a 5b5a 26bf 8147 653e
000001a0: 5bba b13e c7ea 18be e047 1cbc 854e 37be
000001b0: a111 40be 43ad b13e 9a6e 38bf 5e4f 2b3e
000001c0: bb12 89be 45d3 9ebd 5d8b 1d3d 5272 0a3e
000001d0: 91b9 473e d192 f8be 3540 473e 91be b6bd
000001e0: 6351 0dbe bb86 43be c6bf 553e 985f e8be
000001f0: 0223 8dbd d246 f8bd aeb9 9abd 35b7 3abe
00000200: 0044 e13e 867f 5cbe d825 50be b0f5 01be
00000210: 1527 4dbe 2c14 b1bd 78c4 1fbd bb3e febd
00000220: ba1e 883d fd6d 813e 6cd5 39be 768d 73be
00000230: b9a0 053f dcb8 2d3e 3714 163e 2031 d73d
00000240: d8c9 3dbe 88a7 de3d e27b 123e 2e70 8abe
00000250: 895c 04bc 7362 a63e 6f6f a83d 355b 2b3e
00000260: a96f 293e bf51 0dbd 95b3 3c3e f747 cb3e
00000270: fe19 88be 25c4 1a3e 435c cd3e 6044 6d3e
00000280: 3889 ab3e 16c2 a0be f7d6 d3be eb55 843d
00000290: 6d57 053e d909 b2be ad36 eebd 50ea 24be
000002a0: f83c 8c3e 9a03 06bb f257 42bf 50e6 133e
000002b0: c8f9 113f f67e 1c3e b8c1 393e b3b9 9f3e
000002c0: b85f daba f701 4dbe 7655 32be 231b d53d
000002d0: 28f6 b33c 726f 02be 14bb ac3e 6b68 c43d
000002e0: 8786 efbe 4b81 c03e 7647 0a3f 9128 993d
000002f0: 4bf2 a3be 0871 883e e4b8 2fbf 90ef 3b3e
00000300: aeb8 1dbe ce4b 263d 39f7 f7be d81a c5bc
00000310: bee3 053e 831b 2c3e 9318 3e3e ded1 febd
00000320: 25b2 acbd 0f60 ecbe 5a3e aa3c f497 893e
00000330: 1ef4 c13d 0ccb 6a3e 1b75 56be 1081 e23d
00000340: 629b a23e 32f6 b0bd a8bd 84be 4934 5abe
00000350: 1b2e 303e 7863 113e e6f3 943e 6073 19bd
00000360: c8f5 40be a61a 86be 948c a9be 0e78 debe
00000370: fbad 14bf 98f2 c2bc 8251 233e ec95 aebe
00000380: ac77 913e 907c bc3d b413 11be f96d 12be
00000390: a6d9 49be d19a 4dbe 0984 e83d 2836 88be
000003a0: b0c5 1f3e 8a9f 4a3e 7f0c 96be b0a5 a43e
000003b0: c829 ae3e f5e7 54be f3b7 cbbe 9733 6f3e
000003c0: cf24 0b3e 184d b7bc 8282 02bf 0cf1 d6be
000003d0: 1c20 153d d9e0 27be 158c eb3d f284 11bf
000003e0: f761 88be 23bb 613d d904 f9bd e715 dc3d
000003f0: 7c6b 87be 5d0f 1fbe 53a6 b03e f450 b03d
-0.03439348 0.24068096 -0.1177508 -0.30212745 -0.3697842 0.26765814 -0.004408907 -0.13021092
0.46955723 -0.2323761 -0.5165411 -0.45246476 0.091454975 0.034045503 0.36958766 -0.22858205
0.46370107 0.10595531 -0.74228656 -0.16975541 0.008081328 -0.00401081 -0.023681322 0.39675376
-0.32465318 -0.27380934 0.29598975 -0.30187365 -0.5375302 0.00020219148 -0.13065709 -0.46742108
0.08760637 -0.13489175 0.090578504 -0.010562981 -0.10314442 -0.09391842 0.3209787 -0.2735802
-0.14800899 -0.07525192 0.046325434 0.04490742 -0.057656966 0.12944172 -0.08907749 -0.029914632
-0.4886506 0.065918 -0.22269033 0.03383908 -0.5471227 -0.027314907 -0.32113987 -0.3514277
-0.0645244 0.16619432 0.40201125 0.17599198 0.17129108 -0.13127553 -0.22079343 0.33441207
0.18710417 0.22220086 0.1946238 -0.34753123 0.050197195 -0.15846181 0.21465611 -0.61323786
0.025454847 0.35216966 0.17000963 -0.21176499 -0.23744783 -0.17746136 -0.20462902 0.14687918
0.24694052 -0.30507773 -0.09196543 0.13216037 -0.1290411 0.13504307 0.017511087 -0.1352268
0.1348021 -0.21673188 0.007844663 0.13747787 0.042725623 -0.14289573 0.13941409 -0.28887382
-0.4971119 0.030290412 -0.05115045 -0.3214826 -0.28011772 0.0014472633 -0.6498162 0.22390558
0.3471249 -0.1493331 -0.009538621 -0.17901047 -0.18756725 0.347025 -0.72043765 0.16729495
-0.26772103 -0.0775514 0.038462985 0.13520172 0.19504382 -0.48549512 0.19458087 -0.089230664
-0.13800578 -0.19094364 0.20873937 -0.45385432 -0.06891443 -0.12122883 -0.07554947 -0.1823395
0.43997192 -0.21533021 -0.20326936 -0.12691379 -0.2003444 -0.086464256 -0.039005727 -0.12414309
0.066464856 0.25279227 -0.1814782 -0.23784432 0.5219837 0.1696505 0.14656149 0.10507417
-0.18534029 0.10871798 0.1430507 -0.2703871 -0.008078703 0.32496986 0.08224379 0.16734011
0.16546501 -0.034501787 0.1842788 0.39703342 -0.2658233 0.15113886 0.40109453 0.23170614
0.33503127 -0.31398076 -0.41374943 0.064617 0.13021632 -0.34773138 -0.11631522 -0.16105008
0.27390265 -0.0020448924 -0.75915444 0.14443326 0.5702176 0.15282807 0.18140304 0.31196365
-0.0016660606 -0.20020281 -0.17415413 0.104055665 0.021967962 -0.12737826 0.3373648 0.09590229
-0.46782324 0.37598643 0.5401529 0.074784406 -0.32020792 0.26648736 -0.68641496 0.18353105
-0.15402481 0.040599637 -0.48430803 -0.024060652 0.13075158 0.1680737 0.18564062 -0.12442373
-0.08432416 -0.46167037 0.020781685 0.26873744 0.0947039 0.22929019 -0.2094311 0.11059773
0.31759173 -0.08640708 -0.25925946 -0.21309008 0.17205088 0.141981 0.2909233 -0.037463546
-0.18843758 -0.26192206 -0.33115065 -0.4345097 -0.58077973 -0.023797318 0.15949062 -0.34098756
0.28411615 0.09203446 -0.14167672 -0.14299764 -0.19711933 -0.20078589 0.11353309 -0.26603818
0.15602756 0.19787422 -0.2930641 0.3215766 0.34016252 -0.2079161 -0.3978878 0.23359524
0.1358826 -0.022375628 -0.5098039 -0.4198078 0.036407575 -0.16394366 0.11501328 -0.56843483
-0.2663724 0.055110108 -0.12159128 0.10746365 -0.26449192 -0.15533204 0.34501895 0.086091906

mlp.6.bias f4 [32]
00000000: 2b2e 553e 406b d7bd be96 793a a530 173e
00000010: 9d42 57bd c21e 74bd 8864 ca3d dceb 32be
00000020: 9eb9 a43c 19e9 a2bd a4af 193d f45f 543d
00000030: 4ab6 83bc 18fe 523d ee6e 7dbe 0448 473d
00000040: 3de5 f8bc a774 98b8 26ad aebd f435 76ba
00000050: 4aff 193e 3a43 8abd 482f b53d 5f89 01be
00000060: ebfb e8bd 0d6e f13d 67a2 c33d 1f16 073c
00000070: 1b30 5f3d 4542 103e 93ad 8abd e078 b13d
0.20818393 -0.10518503 0.00095210585 0.1476465 -0.05255376 -0.059599645 0.09882456 -0.17472786
0.02010804 -0.07954616 0.03752102 0.05184932 -0.016078133 0.051511854 -0.24749348 0.048652664
-0.030382747 -7.269653e-05 -0.08529119 -0.0009392195 0.15038791 -0.06751104 0.08846909 -0.12650059
-0.113761745 0.11788569 0.0955246 0.00824502 0.054489236 0.1408778 -0.06771388 0.08665633

mlp.8.weight f4 [14, 32]
00000000: f415 7cbe 47ef 05bd 1d23 223e 4ab5 73bd
00000010: 2ee9 1b3e b53b 483e bb3f 56be 72df c9bd
00000020: 4320 e5be ca70 08be 89b1 aa3d 8b57 d13c
00000030: 9917 783e 03c2 203e f352 c23e cb17 88be
00000040: 3d6f 943e bfda 1bbe 9d83 73be 62ca e93e
00000050: 7b37 5bbe 1f4e 41be 9b35 cc3d c34b e5bd
00000060: eda4 fc3d 1696 f4be 5ad5 913e af26 41be
00000070: 1753 f1be 5c90 703e fd5a 3abe f5b9 afbd
00000080: f120 063e 3fdf e8bd 96d6 05be d77f 363d
00000090: 3e5e e73e adab debe 0053 b8be 36c8 c0bd
000000a0: 67b1 c5be 50e2 4a3e e3fb 053f 2ba7 c1be
000000b0: 2641 9b3e d119 c5be 9b9c 183d b4a1 c3be
000000c0: 2c98 b3be 3835 a03e dd3a febd 7fe8 393d
000000d0: 6e27 afbd b5d3 7e3e 544b 9cbe a169 c4bd
000000e0: 72d7 14be b90d 973e 94ac edbe 0424 46bd
000000f0: 94b3 94be 1120 13be 6dc4 ce3e 5097 d0bd
00000100: 1907 afbd b688 abbc d824 8fbe 980b 213f
00000110: 94ae 2cbe 1be0 02bd df00 c4bd edf1 d5bc
00000120: 1f66 8f3c 0b6a a03e 33d8 a93e 9080 e4be
00000130: 8bca 16bf 16aa 8bbe b131 023d 00a5 40bd
00000140: 57f8 2dbe d1bd 0bbe 4472 a43e b224 313e
00000150: 6674 c23e 978b 94bd ca45 cabd 18a9 0f3e
00000160: ffa8 35be 9829 cdbe 7920 39be 9004 2e3e
00000170: 3db3 12bd fe41 c93e 3281 82bd d564 93bc
00000180: c717 7b3e 05ec c1bc 3f94 b3be 5a49 983d
00000190: 3199 5ebc f827 abbe 89e9 2d3d d1d7 b6be
000001a0: ecd6 aabe d75c a63d 9b7a 43be 49be c1be
000001b0: f83a 1c3d 9dff 403e 14bd 29be 9701 e5be
000001c0: d46f 8e3e b21d 24be 78e4 ef3e ed48 4e3e
000001d0: 8faa d8be 9891 83be 1c61 43bd 1969 65be
000001e0: b9ec 173e 0b11 403e 87c0 4b3e b1a3 08bd
000001f0: 3446 f2bd 5823 4c3a 30e2 ebbd 2fd8 8b3e
00000200: b86c 1bbb 45f8 323e d726 77bb 531e 17be
00000210: 4c06 c63d 6166 83be 7f56 60be bc36 69be
00000220: 4582 d9bd 1761 b53e a652 2ebf c8bf bd3e
00000230: b2e6 d4be 7d0e efbd 4fb0 753e 4632 23bc
00000240: 8553 a13e b10d db3e d82b 69be 7a21 303e
00000250: 80f8 c73d 7f1a 6c3e 0276 f6bc bb68 853e
00000260: e01c 72be 2478 d8bd 8b1c 703c 583c 3b3e
00000270: ed8a 313e 53d8 a33e 6744 043e 835b b83e
00000280: 9f66 7d3e 7403 593d 30b1 87be 0351 cf39
00000290: a5e4 93be f5fb 313e a396 99be 6ade cebe
000002a0: daf4 aa3d 000d 133e e488 9d3c f15d b2bd
000002b0: fd6d 973d ccc3 603d e770 793e 351f 8b3e
000002c0: 5806 393e 8fa2 c73d db52 4bbc 39af e63e
000002d0: 5599 e43d 7d1b b13e 2fc7 cf3c e586 e93e
000002e0: 8f00 67be 61a0 413e 013f 613e 40db d13e
000002f0: 06a2 cd3c 0749 d9be 4de4 59be f784 46be
00000300: b770 88be ca0f 753e e058 07be 4486 073c
00000310: 4825 77be 41b6 123f 949d efbd e7ce 393c
00000320: e09f fa3e 490f 863e 924b f2bd 47a5 893e
00000330: 846b e73d 12ce 31be a7bf 173e 623d fabd
00000340: 841f c73e aa84 68be 18f7 b23c 712e d6bd
00000350: 4118 c73c 0f6d 92bd 6a06 8cbe 4641 e83e
00000360: 4d46 053f 56ee 6b3e 4cd9 94bd 5f2d 47be
00000370: c3bb 8abe 1602 783d d93a 58bd 53ee 98bd
00000380: f9f5 133f 9c84 123e 4097 b23d d8f8 973d
00000390: 0f44 5ebe 0dd2 383e 9772 2dbe 1165 c2bc
000003a0: 200d 02bd f874 d13e e7ad 9e3d 3ee3 923d
000003b0: caac ef3d 12f0 043e 2479 04bd a0d7 f63d
000003c0: 54fe fbbc 6eda 143e ac8a 5f3d f5d8 b8bd
000003d0: d321 513e ef5c db3d d359 543d b5f3 a6be
000003e0: c6f6 2abd fe42 18be b141 66be c9bc d1bd
000003f0: 0156 8cbe 00ba 22be 9c42 a43d 3413 9a3e
-0.2461775 -0.032698896 0.15833707 -0.059499063 0.1522567 0.19554026 -0.20922749 -0.09857072
-0.44751176 -0.13324276 0.083346434 0.025554439 0.24227752 0.1569901 0.3795391 -0.26580653
0.28991118 -0.15220164 -0.23780675 0.45662218 -0.21407883 -0.18877457 0.09971162 -0.11196091
0.123361446 -0.47770756 0.28483087 -0.18862413 -0.47133705 0.23492569 -0.18198772 -0.0858039
0.13098504 -0.11370706 -0.1307014 0.04455551 0.4518909 -0.43490353 -0.36000824 -0.09413187
-0.3861191 0.19812894 0.52337474 -0.37822852 0.30323142 -0.3849626 0.037258726 -0.38209307
-0.35077035 0.31290603 -0.12413571 0.04538774 -0.085524425 0.24885447 -0.3052622 -0.095904596
-0.14535311 0.29502657 -0.4642073 -0.04837419 -0.29043257 -0.14367701 0.40384236 -0.101851106
-0.08546276 -0.020939212 -0.27957797 0.62908316 -0.16863471 -0.031952005 -0.09570479 -0.026116336
0.01750475 0.31330904 0.3317276 -0.44629335 -0.58902806 -0.27278203 0.03178567 -0.047032356
-0.16989265 -0.13646628 0.32118428 0.17299154 0.3797943 -0.07253187 -0.098765925 0.14029348
-0.17740248 -0.40070796 -0.18078794 0.16993928 -0.035815466 0.3930816 -0.06372298 -0.017992416
0.24520789 -0.023672113 -0.3507404 0.07435866 -0.013586328 -0.3342893 0.042459045 -0.3571153
-0.33367097 0.081231765 -0.19089739 -0.3784049 0.038142174 0.18847509 -0.16576034 -0.44727775
0.27819693 -0.16026953 0.46853995 0.20145006 -0.42317626 -0.25697017 -0.047700033 -0.22403373
0.14836396 0.18756501 0.19897662 -0.033359233 -0.118297964 0.0007787249 -0.11517751 0.27313372
-0.0023715924 0.1747752 -0.003771236 -0.14757662 0.0966917 -0.25664046 -0.21907996 -0.22774786
-0.1062055 0.35425636 -0.6809486 0.3706038 -0.41582257 -0.11672685 0.23993038 -0.009960717
0.31509033 0.42783883 -0.22770631 0.1720027 0.097641945 0.23056982 -0.030085567 0.26056466
-0.23643827 -0.1056979 0.014655243 0.18284738 0.17338152 0.3200098 0.12916718 0.36007318
0.24746178 0.05298181 -0.2650237 0.00039542475 -0.2888538 0.1738127 -0.2999774 -0.40404063
0.08347483 0.14360428 0.019230314 -0.08709324 0.073940255 0.054874226 0.24359475 0.27172247
0.18068826 0.097478025 -0.012409891 0.4505556 0.11162058 0.34591284 0.025363533 0.4561073
-0.22558807 0.18908836 0.2199669 0.40987587 0.025101673 -0.42438528 -0.21278496 -0.1938666
-0.26648495 0.23931804 -0.13217497 0.0082717575 -0.24135315 0.5730935 -0.116999775 0.011340833
0.489501 0.26183537 -0.1183082 0.2688391 0.11299804 -0.17363766 0.14819203 -0.12218739
0.38891232 -0.22706857 0.02184634 -0.10458077 0.024303557 -0.071497075 -0.27348644 0.453623
0.52060395 0.23040137 -0.072680086 -0.19450901 -0.27096376 0.060548864 -0.052790496 -0.07467332
0.577972 0.14308399 0.08720255 0.0742051 -0.2170565 0.18048878 -0.16938244 -0.023729833
-0.0317508 0.40909553 0.07748013 0.07172249 0.11702879 0.12982205 -0.03234209 0.12052846
-0.030760922 0.1453645 0.054575607 -0.09025756 0.20423059 0.10711085 0.051843476 -0.3260781
-0.041739248 -0.14869305 -0.22485997 -0.10241086 -0.27409366 -0.15891266 0.08020517 0.30092776

mlp.8.bias f4 [14]
00000000: b12b d9bd 3af4 07be 19cc 19bd b02a 453d
00000010: c9ab 903d 808e 7ebc 7ab5 11be 992f 4e3c
00000020: 96d3 5fbd 979a 87bd 2256 3bbe 80c0 d3bd
00000030: 262d 233c f44b a6be
-0.106040366 -0.13276759 -0.03754816 0.048136413 0.070640154 -0.015536904 -0.14229384 0.01258459
-0.054645143 -0.066212825 -0.18294576 -0.10339451 0.009959495 -0.32479823
